_model.pt (torch, 780795 bytes, 10 tensors)

layers.0.weight f4 [4, 1, 3, 1]
00000000: 03c3 dbbe 68d5 1dbe 9e31 b8be a2da 4bbe
00000010: c96e 09bf 19ba 5a3e cffc 09bf 53b0 84bd
00000020: 98c8 313e 45bc 77be 369f 743e 642c cebc
-0.4292222 -0.1541344 -0.35975355 -0.1990762 -0.5368467 0.21360053 -0.5390138 -0.06478944
0.17361677 -0.24192913 0.23888859 -0.025167651

layers.0.bias f4 [4]
00000000: bb05 b13e 1290 d43e 8cb3 82be 1fe0 293e
0.34574685 0.41516167 -0.25527608 0.16589402

layers.3.weight f4 [8, 4, 3, 1]
00000000: 9fe5 bdbd 444f 1f3e b66f 27be 6dca a2bb
00000010: edd7 dd3d c334 43be 92ac 76be de40 c63c
00000020: 17a7 683e af20 893d 198b 0abe 0994 0abe
00000030: c27c 123e 19b6 6dbe 3d87 8a3d 4640 20be
00000040: 8960 f83d 2959 edbd 648b dbbc e04e 843d
00000050: 569d 393e 8c46 21be 319d 163e 7758 c4be
00000060: 5925 5bbe cf05 eabe 469a f1bd e3d3 a03d
00000070: f15e 68be 7edd 903c fb5b 4dbd 6feb a0be
00000080: 2c9b 113e 4b4a ae3d 3cce 15ba 69b8 953d
00000090: 3c02 0abc 4813 08bb f249 ca3d 632d 12be
000000a0: 852b 90be 36b9 8bbe 48ab 96bd 5905 a8bd
000000b0: 1fcc 883d d57a c73d f458 0abd e985 88be
000000c0: 226e 53be a49d 21be 0957 ea3d 0dc8 c4bd
000000d0: ecd7 323d 8fa9 9abd 23d9 abbd 9801 713b
000000e0: 8670 94be 11ea 723e 8a4c 183e f562 cdbd
000000f0: f769 85be eecf 5bbe 40a5 50bd 3818 aabe
00000100: 35c5 69be b17b 6fbd 9e19 82be 7a10 0dbe
00000110: 2358 2fbe 0798 c93d 3823 a23c 262f aabe
00000120: dfd0 bf3c 00b2 8f3a 1ad4 69bd 0951 77bd
00000130: bfac 97be 016d 75be ddaf 0a3e 122e 41be
00000140: f1b7 e9bd 5c22 863d a073 aa3d 68a3 5fbc
00000150: 8a0c 2f3d e7d5 ac3d 00ca a9bd f0b8 0cbe
00000160: b3bf 993e 801d ba3e 351d a63d 0d52 4ebe
00000170: a7a4 8fbe 9c3c 8dbe 109a ed3d 7b5e 7e3d
-0.092723124 0.15557581 -0.16351208 -0.0049679787 0.108322 -0.19063096 -0.24089268 0.024200853
0.2271999 0.06695687 -0.13529624 -0.13533033 0.14305404 -0.23213996 0.06764076 -0.15649518
0.121277876 -0.115892716 -0.026799865 0.06460357 0.18126425 -0.15749568 0.14708401 -0.38348743
-0.21400966 -0.45707557 -0.117970034 0.07852914 -0.22692467 0.01768374 -0.050136548 -0.31429622
0.1421935 0.08510264 -0.000571463 0.07310564 -0.008423384 -0.0020763446 0.09877385 -0.14275126
-0.28158203 -0.27289742 -0.07356888 -0.08204145 0.06679558 0.09740225 -0.03377624 -0.26664665
-0.20647481 -0.15782791 0.11442382 -0.09608469 0.04366295 -0.07551872 -0.08391025 0.0036774632
-0.289921 0.23722102 0.14872947 -0.1002864 -0.26057407 -0.21466038 -0.050938845 -0.33221602
-0.22829135 -0.05846757 -0.2541017 -0.13775817 -0.17123465 0.0984345 0.019792184 -0.33239096
0.023415027 0.0010963082 -0.05708704 -0.060380016 -0.29623982 -0.23967363 0.13543649 -0.1886523
-0.11412037 0.06549522 0.08322835 -0.013649799 0.042736568 0.08439236 -0.082904816 -0.13742423
0.30029067 0.36350632 0.081110395 -0.20148487 -0.28055307 -0.27585304 0.11601651 0.062101822

layers.3.bias f4 [8]
00000000: 8e8c 0a3d fc3f a1bd f742 563e e6d1 803e
00000010: 09d3 60bc 42c4 9cbe f490 293e 30a0 1bbd
0.03382545 -0.07873532 0.20923983 0.2516014 -0.01372219 -0.30618483 0.16559201 -0.037994564

layers.6.weight f4 [16, 8, 3, 1]
00000000: aedc 70be 5e06 273d f61b 483e ddaf 25be
00000010: f492 34bd c851 353d 116f 4ebe 1465 4dbe
00000020: 5dc7 0b3e abf1 e0bd efd8 c23d 4edf d6bb
00000030: 0b50 543c 06c0 25be 959f 73bd 5bf7 c83d
00000040: edb3 8a3d 4cbc 71bd 8ca9 57bc 86c9 053e
00000050: d768 47be 89f8 d93d 512a b0bd 5095 87bd
00000060: c297 973d 01c7 62be 76f6 c2bd e21f ce3d
00000070: fca9 b73c 5fbf fabd bb8f 11be 2484 923d
00000080: f403 59bb c4f5 443d e6e0 7cbe f676 143c
00000090: 263d 89bc 3d4c 80bc 334d f73d 0715 e03c
000000a0: ecc9 543d 3678 40bb 6717 e23c 86d3 abbd
000000b0: c7cc 6fbe dabe 46be a20e 73be 6fb0 7bbe
000000c0: 3c2a eb3d 1c55 513d 9277 05be 9b98 40be
000000d0: 78d6 203e 75eb d93d 0e20 edbc b804 a13d
000000e0: bcff 59be 479b f5bd 4cc2 06be 5b47 02bd
000000f0: ba33 62be 733f 9c3d a06c aabd 9ea7 853d
00000100: 76ef 30be 7a7f 25bd 1eeb 81bd e02d 0cbe
00000110: c3cb e33d c562 ed3d becc 5a3e c9fb 0ebd
00000120: cb02 08be b37a 07be 44a4 4e3d b6aa be3c
00000130: 2a1e 1d3c be73 a6bd 0483 35be 88bd 5f3d
00000140: 0b55 19be 1366 993c 2cac 4abe 1745 983d
00000150: 6daa a13d 09ea 3f3d b808 c23c bc5e 76bd
00000160: 3bd2 40be 1e03 b4bd 3018 0cbd 4885 00be
00000170: aa74 2fbd fd49 32bd 0adc adbe f37b a5be
00000180: 1654 f4bd c32c 053d 1a4f 0dbd 2d10 943c
00000190: 11e2 94bd 34e9 2dbe ab4b 183d 3143 113e
000001a0: c67f f3bd 041b 343e 890c 563d 10d3 463e
000001b0: a4f0 97be f1c0 9cbe b05a 0cbd 5e2e 79be
000001c0: 3310 91be e7ba a03d 7ba4 e93d f28c 23be
000001d0: 3535 183e fa6b d6bd 2f53 ac3d 39f8 15be
000001e0: c81d 5bbe 0a3f 28be 244e debd 1d07 6bbe
000001f0: fbe2 f6bc c5f1 d9bd f73f ecbd f0eb 93bd
00000200: 5b1d 18bd ab9e 85be 27bf 0e3d 587f 5abe
00000210: 64c1 5e3d 9a7f f13d 17d8 09be d9d4 d9bc
00000220: 8f12 473d 1de9 99bd 2de9 71be 97b4 bf3c
00000230: a176 1d3d de07 e5bd 7deb 15be 8aa6 84bd
00000240: 051b 5f3d a287 2fbe 886a 2dbd 31a1 25be
00000250: dfa1 23be 94c9 4fbd 8d25 01be 8211 9f3d
00000260: 3c3a 54ba 2da4 0a3e 9441 df3d e300 a2bc
00000270: f73c 9bbe d7fd e2bd 5034 78be a508 943d
00000280: ae35 d1bd 8600 1a3e be8e 15bd 01fd 17be
00000290: 4958 4dbe f2b1 d83d 809a 16bc c75f 443d
000002a0: 50a9 2d3d 81c2 10bd 1a7a 2abe a3b9 bcbd
000002b0: 2b46 d0bd a361 143d 7d33 e1bd 0ab1 14be
000002c0: fd1f f4bd 5acc 9dbc f46d b53d 524c 933d
000002d0: bd99 b5bd 10be 85bd 2f38 ce3d 5c18 ea3b
000002e0: d432 d9bd e415 113d dfe3 e73c f35e 09be
000002f0: 854c 5b3c c7e2 7abd c75f 25be fc3b f1bd
00000300: 9f7d 723e 3fc4 093d dd29 2fbe b58f ea3d
00000310: b757 23bd 0e1a a23d 7773 05bd d271 3e3d
00000320: c6d6 f83c 80e0 3b3e 4ed2 993d 8456 01be
00000330: e52c 9d3d f728 3cbd ba1a be3d de5b c1bd
00000340: 91f8 d5bd c8e6 063e 825d 2f3d 4c83 4e3c
00000350: 590f d83b 6526 dabc 9c4c 01bd 9e02 4abe
00000360: 7405 1a3e 2504 7d3d a942 68be 4940 c43b
00000370: ba12 023e 4dfd 3f3c 91dc 80bc 368a ad3d
00000380: 9e6a ca3c dd5f c3bd 5bbd 56be 2693 17be
00000390: 6db7 94be 8350 4abd fab0 92be cafe c53d
000003a0: 602d 033d ba0c f2bd 9dde 80be ed2d 7cbd
000003b0: 0d9e 29be 5ca0 ab3d 8dd2 953d dafb a43d
000003c0: 4501 b4bd 7b37 e7bd f826 1ebd 8810 323b
000003d0: 1053 01be d386 34bc 0494 25be 4190 89be
000003e0: d9ca 303d 9805 97bc 41dd dd3d ea9f ef3d
000003f0: 68ba eb3d e6ea 71be 3190 39be fe93 a6bc
-0.23521683 0.040777557 0.19541916 -0.16180368 -0.044085458 0.044267446 -0.20159556 -0.2005809
0.1365027 -0.109835945 0.09514033 -0.0065573817 0.012958537 -0.16186532 -0.05947836 0.09812804
0.06772599 -0.059017465 -0.013162982 0.13065156 -0.19473587 0.106431074 -0.08601821 -0.06620276
0.074019924 -0.22146226 -0.09519665 0.10064675 0.022419922 -0.122435324 -0.14214985 0.0715411
-0.0033113929 0.048085943 -0.24695167 0.009061566 -0.01675279 -0.015661353 0.120752715 0.027353777
0.05195038 -0.0029368526 0.02759905 -0.08389954 -0.2341796 -0.19408742 -0.2373605 -0.24579023
0.11482665 0.051106557 -0.13033894 -0.18808214 0.15706813 0.10640613 -0.028945949 0.07862228
-0.21288961 -0.119925074 -0.13160056 -0.03180633 -0.22090045 0.076292895 -0.083215 0.06526111
-0.17278847 -0.040404774 -0.06343673 -0.13689375 0.11122849 0.115911044 0.21367165 -0.03490809
-0.13282315 -0.132304 0.050449625 0.02327476 0.009589711 -0.08127545 -0.1772576 0.05462411
-0.14973848 0.01872543 -0.19792241 0.07435053 0.07893834 0.046854053 0.023685798 -0.06014894
-0.18830197 -0.08789657 -0.034202754 -0.12550843 -0.04283587 -0.043527592 -0.3395694 -0.32321128
-0.119301006 0.03251339 -0.034499265 0.01807412 -0.07269681 -0.16983491 0.037181538 0.14185788
-0.11889605 0.1758843 0.05225805 0.19416451 -0.29675782 -0.30615953 -0.034266174 -0.24334094
-0.28332672 0.07848149 0.11408325 -0.15971735 0.14864047 -0.10469814 0.084143035 -0.1464547
-0.2139808 -0.16430297 -0.10854748 -0.22951932 -0.03013753 -0.10641817 -0.11535638 -0.07222736
-0.03713737 -0.26097617 0.034850266 -0.2133764 0.05438365 0.11791916 -0.13461338 -0.026590751
0.048601683 -0.07515166 -0.23624106 0.023401542 0.03844321 -0.11183141 -0.14640613 -0.06477077
0.054469127 -0.17141584 -0.042337924 -0.16174771 -0.15979718 -0.05072935 -0.1261198 0.07767011
-0.0008095836 0.1353919 0.1090118 -0.019775813 -0.3031995 -0.11083572 -0.24238706 0.07228211
-0.10215317 0.15039262 -0.036513083 -0.14842607 -0.2005321 0.105808154 -0.009192109 0.047942903
0.042397797 -0.035341743 -0.1664814 -0.09215095 -0.101696335 0.036225926 -0.10996149 -0.1452066
-0.11920164 -0.019262481 0.088588625 0.07192291 -0.08867214 -0.06530392 0.1006931 0.007144017
-0.10605398 0.035421267 0.0283069 -0.13415127 0.013384943 -0.061251428 -0.16149817 -0.11779019
0.23680733 0.03363442 -0.17105813 0.11453191 -0.039878573 0.07915126 -0.03258082 0.046495266
0.03037585 0.18347359 0.075108156 -0.1263066 0.076745786 -0.045937505 0.092824414 -0.094413504
-0.10447801 0.13173974 0.042813785 0.012604546 0.0065936265 -0.026629636 -0.0315672 -0.19727561
0.15041143 0.06177153 -0.22681679 0.0059891087 0.12702456 0.011718106 -0.015730174 0.08473627
0.024709042 -0.09539769 -0.20970671 -0.14802226 -0.29046193 -0.04939319 -0.28650647 0.09667738
0.032025695 -0.11818834 -0.2516984 -0.061567236 -0.16564198 0.083801955 0.0731555 0.080558494
-0.08789305 -0.11289879 -0.038611382 0.0027170498 -0.12629342 -0.011018473 -0.16169745 -0.2686787
0.0431622 -0.018435284 0.108332165 0.11700423 0.115101635 -0.23624763 -0.18121411 -0.02033424

layers.6.bias f4 [16]
00000000: 7e06 28be 3860 34bc 321b 613d 1c48 b7bc
00000010: 6707 103e d6fb d1bd 729a a83d d735 adbd
00000020: 0251 503e c554 0d3e 4b51 88be 83a1 39bd
00000030: ebab 3d3e 208a 7b3d 0d59 3abe 9664 7f3e
-0.16408727 -0.011009268 0.054957576 -0.022373252 0.14065324 -0.10253112 0.08232583 -0.08457535
0.20343402 0.13801868 -0.26624522 -0.045320045 0.18522613 0.061411023 -0.18198033 0.24940714

layers.10.weight f4 [64, 3024]
00000000: a045 2dbb 06fa 7a3c e06a 92ba 3aa2 5abc
00000010: 0a55 29bc 60d6 8cbb aea2 aebb 0015 cfba
00000020: c0e5 efbb 6c12 0ebc 3064 a63b c44e b23b
00000030: 6c39 fabb 4803 e13b 0eee ebbb 80db 5e3a
00000040: d8b1 75bb c055 f139 f214 733c 8c05 f1bb
00000050: 378a 863c e0ae 59ba 1280 4abc cce4 d03b
00000060: 301f 063b 3926 923c 5e2f 643c 7f66 8abc
00000070: c910 803c 8192 883c 2a48 1b3c 8036 73ba
00000080: 1766 903c e0bf 993a 2050 8b3a c021 5fba
00000090: 1e79 203c e09c ceba e08b e83a 127d e8bb
000000a0: 907b 173b 3ef6 183c 8a97 1e3c 3bb3 8b3c
000000b0: 1038 d63a b012 8abc cb92 35bc 3934 0fbc
000000c0: b0aa baba bf58 78bc fe74 6e3c 2292 793c
000000d0: a256 57bc 72d7 9abb 12e6 35bc 27cb 22bc
000000e0: d7ad 883c 6a18 0ebc 2c6f 063c ea4e 1f3c
000000f0: f0ee 1e3b 64ed 3abc f0c1 aaba 0c93 6abb
00000100: cf6a 943c 5eae 4d3c a895 073b e8e1 1e3c
00000110: 9c57 69bc e03c 2b3c 1ce6 0b3c 2928 933c
00000120: 862d a9bb 0fbe 45bc 56d7 773c 6556 913c
00000130: a05f bb3a b4c9 823b fbd2 903c 547d 7cbc
00000140: b074 b6bb 3075 5bbc 8e3d 0e3c 1cf7 463c
00000150: 304f 80bc 781f 40bb 6f12 87bc eadb 5b3c
00000160: 66bd 6d3c 4c49 c23b 0048 12b9 807d 4bb9
00000170: 2246 473c 3429 cd3b 9c85 63bc 00ad 6d3b
00000180: febe 6d3c b8c8 413c d290 52bc c0d2 68bc
00000190: b6d0 3a3c 1e29 713c 86d4 15bc 3b5b 3abc
000001a0: cc22 8a3b deaf 16bc fee1 193c 1cef df3b
000001b0: e252 6b3c 0c9f 6fbb 0e67 afbb 0e0e 69bc
000001c0: 9993 843c 2086 183c d0de 043b e8ad 35bc
000001d0: a6d2 783c 55a2 883c 3089 93bb b46b 2cbc
000001e0: fc5e 01bc c232 433c baa4 80bc bedb 06bc
000001f0: 40b3 fcb9 3e8a 413c 9097 20bb 9c63 5bbc
00000200: 3ea3 49bc 207b c13b 803a 2ab9 80ae 93bb
00000210: 8e49 3b3c 00b9 e23b d0a8 a13a 6e28 afbb
00000220: 2edb 43bc a1f2 92bc e86b 0f3c 4053 8539
00000230: b61d 763c 1c7d d5bb 8bbe 8fbc a659 23bc
00000240: 2e68 4bbc 445c 6dbb 4058 83bc 601b f03b
00000250: 629c 563c 402c 083a a34a 94bc 5835 cf3b
00000260: 486e 7cbb 60c8 9b3b d661 b2bb fb44 63bc
00000270: 6cfa 70bc 942d b03b cc34 bcbb dbc7 853c
00000280: 181f 1abb 100e 1c3b b438 443c 8324 8b3c
00000290: bc8e d83b 16ef 7a3c fe0a 6f3c ed9a 933c
000002a0: 4c4e 78bc 3423 f23b 8c6f 08bc f2fc 56bc
000002b0: 0046 093b 3628 5a3c 5bfc 803c 4021 92b9
000002c0: 18ff f63b a03e acba 28c2 2d3b 141f 96bb
000002d0: 3b9b 09bc 5887 3bbc 6812 88bc f899 0bbb
000002e0: 4319 8c3c 8002 d83b e008 773a 40fb 7cbc
000002f0: 90fb 09bb 3063 a3bc 42a1 0db8 f1e4 1cbc
00000300: 5f17 3d3c 0257 0c3c d775 97bc 9123 ef3b
00000310: 829e f9bb 3bed a9bc a1d3 16bc 5b01 3bba
00000320: fa2a e73b a797 f8ba fcb4 313c 0784 9dbc
00000330: 812c 32bc d8f9 abbc 7de4 a3bb 779c 82bc
00000340: 5f04 f83b 59f9 033c 1944 2cbc 97fa 633c
00000350: 7c00 7fbc 98ff 88bc f2cf d4bb 930a 873a
00000360: 598b 5b3c 50c0 7abc 1314 393c b84a 8f3b
00000370: 40df 41bc db83 73bc 56e3 4a3b 56bc 8fbb
00000380: ee0b 3e3c 1021 48ba b780 a1bc 34b0 0dbc
00000390: 2c98 23bc 124d 5bbc 618e b0bb 1fb0 9b3b
000003a0: 93e2 69bc 319f cfbb 9735 31bc d479 0a3c
000003b0: 047f 353c e36a 453c c17f 733c 8ba5 3ebc
000003c0: 427b 80bc b790 253c 7a12 a13b 4cee 6038
000003d0: 62f2 56bc 26ed 8ebc d610 13bc 4ebd 453c
000003e0: a415 47bc 0461 6ebc b1f2 763b 9fa8 4c3c
000003f0: c559 d8ba be7f f43a 28e6 103c 206c 07bc
-0.0026439205 0.015318399 -0.0011170767 -0.013344342 -0.010335216 -0.0042980164 -0.0053294515 -0.0015799105
-0.0073210895 -0.008671384 0.0050778612 0.0054415185 -0.0076362398 0.0068668462 -0.007200009 0.0008501336
-0.0037490036 0.0004603099 0.014836537 -0.0073553976 0.016423328 -0.00083039515 -0.012359636 0.006374931
0.0020465367 0.017840492 0.013927309 -0.016894577 0.015633004 0.016671421 0.0094776545 -0.00092778355
0.017626805 0.0011730157 0.0010628738 -0.0008511804 0.009794502 -0.0015763305 0.0017741881 -0.0070949877
0.002311442 0.009336052 0.009679684 0.017053237 0.0016343612 -0.016854614 -0.011082361 -0.008740478
-0.0014241543 -0.0151578775 0.01455426 0.015232595 -0.0131432135 -0.00472539 -0.011102216 -0.009936131
0.016684456 -0.008672813 0.008205216 0.009723404 0.0024251305 -0.011409137 -0.0013027769 -0.0035793213
0.018117337 0.012553779 0.0020688567 0.009697415 -0.014242079 0.010451525 0.008538749 0.017963486
-0.0051628975 -0.012069239 0.015127024 0.017741391 0.0014295466 0.00399133 0.017678728 -0.01541074
-0.0055681095 -0.013394639 0.008681668 0.012143876 -0.01566276 -0.0029315632 -0.016488282 0.013419131
0.014510488 0.005929148 -0.00013950467 -0.00019406341 0.012162717 0.0062610153 -0.013886835 0.0036266446
0.014510868 0.01182764 -0.012851911 -0.014210403 0.0114023 0.014719276 -0.009144908 -0.01137429
0.004215574 -0.009197203 0.00939226 0.006833924 0.0143630225 -0.0036563305 -0.0053528612 -0.014224542
0.016183661 0.009309322 0.0020274408 -0.011088826 0.015186941 0.016678968 -0.004502438 -0.010523725
-0.007896181 0.011913957 -0.015703548 -0.008231102 -0.00048198737 0.011812745 -0.00245044 -0.013390448
-0.012306986 0.00590457 -0.00016234256 -0.004506886 0.011431111 0.0069190264 0.0012333635 -0.0053453958
-0.011954112 -0.01793796 0.008753754 0.00025429763 0.015021732 -0.0065151583 -0.017546913 -0.009970104
-0.012414975 -0.0036218325 -0.016033292 0.007327482 0.013098808 0.0005194582 -0.018101996 0.0063234977
-0.0038517881 0.004754111 -0.005443792 -0.013871427 -0.014708143 0.005376527 -0.0057435986 0.01633065
-0.0023517068 0.0023812093 0.01197641 0.016985184 0.006608812 0.015315792 0.014590023 0.01801821
-0.015155386 0.0073894504 -0.008327376 -0.01312183 0.0020946264 0.013315251 0.015745332 -0.00027872063
0.0075377338 -0.0013141222 0.0026513431 -0.0045813415 -0.008398826 -0.011445843 -0.01661034 -0.002130149
0.01710189 0.006592095 0.0009423625 -0.015440762 -0.0021054484 -0.019944757 -3.3767203e-05 -0.009576068
0.011541217 0.008565666 -0.018488808 0.007297941 -0.0076177726 -0.020743003 -0.00920573 -0.0007133686
0.0070546838 -0.0018966094 0.010846373 -0.019227995 -0.010874868 -0.020993158 -0.005001603 -0.015943749
0.0075688804 0.008055055 -0.010514283 0.013914726 -0.01556408 -0.01672344 -0.0064945156 0.0010302834
0.013399922 -0.01530464 0.01129629 0.004372921 -0.011833012 -0.01486298 0.0030958257 -0.004386465
0.011599524 -0.0007634321 -0.019714696 -0.008647967 -0.009985011 -0.013385074 -0.0053880666 0.00475122
-0.014275211 -0.0063361158 -0.0108159995 0.008451898 0.011077646 0.01204941 0.014862002 -0.011636148
-0.015683774 0.0101053035 0.0049155327 5.3627693e-05 -0.013119312 -0.017447066 -0.008976182 0.01206906
-0.012151156 -0.0145494975 0.0037681276 0.012491374 -0.0016506246 0.0018653793 0.008843936 -0.008265525

layers.10.bias f4 [64]
00000000: 4736 25bc ee9c f9bc 96ee b1bc 17e5 0dbd
00000010: 27eb aebc 783f c7bc 3ad4 a6bc f9ac 0abd
00000020: 3f99 d838 c0f9 c6ba 265c 32bc d626 e33d
00000030: 489e 8ebc 2109 babc 5f20 8abc 50f3 1bbd
00000040: 34df a93c 75ed e7bc 125c 273e ae22 0fbc
00000050: 388a fbbb b5eb a3bb 3c8c 21bc ba6a 16bd
00000060: 2313 d2bc 9793 cdbc c917 ddbc a4d8 4bba
00000070: ad05 79bc 5227 bfbc eafe 02bc 2478 dcbc
00000080: 58f2 da3b c509 353a ef40 6c3c b273 c0bc
00000090: 4371 23bb 3ed6 c0bc 901f 5cbb 88e5 113e
000000a0: 8ba7 fcbc 643d 0fbc 6b6c 59bc 93ea 28bc
000000b0: 6915 ffbb d1ea bfba 8def e9bc 99ff a53d
000000c0: 778b 28bc 21d4 ddbb 4830 cbbc 2731 61bc
000000d0: f512 acbc 06e4 833a e10c 20bd 6e83 e7bc
000000e0: 9c4a 1e3c ad35 ddbb a45b 113c 588b 8cbc
000000f0: fbc7 98bc 46b9 45bc fbc0 82bc 2523 27bc
-0.0100837415 -0.030470338 -0.021720212 -0.034642305 -0.021352364 -0.024322256 -0.02036487 -0.033856366
0.00010328227 -0.0015180632 -0.010886228 0.11091392 -0.017409459 -0.022709431 -0.016861139 -0.038073838
0.020736314 -0.02831147 0.16343716 -0.008736296 -0.007676389 -0.0050024637 -0.009860095 -0.036722876
-0.02564389 -0.02509479 -0.02698888 -0.00077761174 -0.015199107 -0.02333418 -0.007995347 -0.026912756
0.0066817217 0.0006906058 0.014419778 -0.023492668 -0.0024939335 -0.023539659 -0.0033588149 0.14247715
-0.03084161 -0.008742664 -0.013270478 -0.010309833 -0.0077845347 -0.0014642124 -0.02855661 0.08105392
-0.010287157 -0.0067696725 -0.024803296 -0.013744629 -0.021005133 0.0010062463 -0.039074782 -0.028260913
0.009661343 -0.0067507834 0.0088719465 -0.017156288 -0.018650046 -0.012068098 -0.01596116 -0.01020125

layers.12.weight f4 [5, 64]
00000000: 2e4a 023e 9a89 b8bd efc8 08bc 1a26 cebd
00000010: b74f 3dbd 5587 0b3d 8883 a23c c928 a53d
00000020: e96f 133d 801e 8c3d 242b 633d 4762 053d
00000030: 20a1 f5bc 3525 88bd 58a0 f93c 6431 0a3d
00000040: de18 db3c 70e8 d53c 8e23 e33d 81d8 f2bc
00000050: e323 ddbd 34f7 32bd 9c92 5dbd b017 f93b
00000060: 4a68 8d3c 1a72 a4bc e651 c83b fbbf 2bbd
00000070: 13f3 c6bc bedb 33bd 90fe 2ebc 53d6 1d3c
00000080: e102 b4bc 7245 a53d 9d73 cfbd 7466 0fbd
00000090: 2256 b1bc d40f ecbc b298 aebd 618f 813d
000000a0: 03d5 6fbd bed9 663d 4a96 a3bd dbe7 0c3d
000000b0: 21b3 a9bd 1ffa bd3c 1639 f43d 44ad a03d
000000c0: b2e9 1a3d 9ee0 d6bd ea49 ccbd e880 873c
000000d0: f55a f7bd 3842 803d ea52 92bd 00e3 ef3a
000000e0: c577 99bd 5173 20bc 17f3 21bd f9a4 c7bc
000000f0: afd9 9abc c659 d3bd 31f1 e6bd d0fe bebd
00000100: aca6 29bd b2a7 033d b765 8bbd cce4 f83d
00000110: f4c0 553d 31fd 61bd c6bd 423d fe5d 4b3d
00000120: 23e3 1e3d b3c4 babd 3076 7d3c 4cf2 de3d
00000130: daed 28bd d3d3 783d 1568 78bd 18b1 f33d
00000140: 4747 0c3d 3689 cfbd 5e41 8a3d 351c 9dbd
00000150: 54cb 983d 6769 b0bd 2c59 50bd 96fe e5bc
00000160: 4e87 10bd b1ae 7e3d ee53 85bc 20c6 e8bb
00000170: 4bb8 d83d e2f5 83bd 8080 243b 6832 b93c
00000180: ac91 873d bd69 163c 1083 ddbd 19b1 e13d
00000190: e0a6 f1bb 826a babd c182 023d e63f c63d
000001a0: a87e adbc 3182 27bb 3638 97bd cd31 52bc
000001b0: c041 48bc ac58 053d 6e19 92bb cbf7 b9bb
000001c0: d249 bf3d aca5 17bd 38ef 083d fb24 433d
000001d0: 29e5 e9bc 905b 863c e2fa 8dbd 500c 94bd
000001e0: b0fd 393c 5748 78bd 0c4e 313c ec65 31bd
000001f0: d6a5 cfbd 6076 59bd 00dc f3bc 784c f9bc
00000200: 60e7 b13b 71de c6bd 8344 cabd 026b fabd
00000210: bc14 d23c 703c 883d 6417 e6bc 17e6 cd3b
00000220: 9e25 07bb 9090 713c 40d6 9d3b 20a9 a63d
00000230: c341 10bb 82db a2bd aaf2 c53d d3ab fabc
00000240: e39f 013d e0a3 2dbc 16fc bc3d d724 c5bc
00000250: a0cb 82bb 401e e23c 2a62 22bd f2d2 343d
00000260: 08d6 1ab9 dbfd b0bc b929 b83d 002a 6e3a
00000270: 5dba b3bd b8a5 ec3a 6861 68bd 6634 a3bd
00000280: ce15 fa3d 601f 7dbd 60fb d23c 329f ebbc
00000290: b254 f6bd 126f 82bc 0076 31bd 8f01 9e3d
000002a0: d2a4 98bd a27a e3bd 2e29 c9bd e5bb de3d
000002b0: 450c 31bc fb8b a5bc 23a0 63bd 3ef9 073d
000002c0: b2b9 2b3d 895c b3bd c8a5 ebbc 1f56 99bd
000002d0: a7f2 c0bd 426c 9a3d 8c59 e13c c897 c33c
000002e0: 3acb 97b9 40d9 383b 609e 1c3d 80a8 9fbd
000002f0: c425 dabd c445 8ebd 96d6 a83d 407c 633b
00000300: 3425 52bd 0672 853d 7d95 b03c af6b c03d
00000310: 911f 8e3c 9732 f5bd e47d 57bd 7fb2 c9bc
00000320: 8654 3e3d d82b a73c 2858 1fbd ce75 853d
00000330: 34c9 c4bd 279a 5dbd b8cf 8ebd d545 ccbd
00000340: 4b4b ea3c 4686 fbbd a888 d83d c51e 41bd
00000350: 73a5 873c 6488 2dbd 24f2 cc3d 2b08 ae3d
00000360: b98d 313d 8eac 073d 3cc7 f03d 8c4a 083d
00000370: 8282 3f3d 6711 cf3d 7422 e9bd d404 cd3d
00000380: d0a0 0b3c dd77 adbd 3ae3 de3d 063a e23d
00000390: 8013 02bd 8091 f6bd 6202 b1bd 7e55 1a3d
000003a0: f865 4b3d 5489 2fbd c690 db3d ef69 c3bd
000003b0: ecda 7f3d c6e3 a5bd 7820 de3d 5624 133e
000003c0: 650d b53c da3e b0bd 540a 14bd 8f62 85bd
000003d0: 2e68 653d 1016 a33c 27b5 36bd 7e7e d3bd
000003e0: 1639 a0bd f0c5 a23d 4096 133d 00a4 f0bd
000003f0: 5c93 c83d 1ff4 22bb fc65 93bd 3008 0dbc
0.1272361 -0.090106204 -0.008348688 -0.10065861 -0.0462186 0.03406461 0.01983811 0.0806442
0.035995398 0.06841755 0.055461064 0.032564428 -0.029984057 -0.06647722 0.030471966 0.03373851
0.026745256 0.026111811 0.11090766 -0.029644253 -0.107978605 -0.043692783 -0.054094896 0.0076017007
0.017261643 -0.02007394 0.0061132787 -0.041931134 -0.024285829 -0.043910734 -0.01068081 0.009633618
-0.021974029 0.08069886 -0.10129473 -0.035009816 -0.021647517 -0.028816141 -0.08525218 0.063261755
-0.058552753 0.05636 -0.0798765 0.034400802 -0.08286119 0.023190556 0.11924951 0.07845548
0.037820525 -0.10492061 -0.099750355 0.01654096 -0.120778956 0.0626263 -0.07144721 0.0018301904
-0.07493547 -0.009793119 -0.03953847 -0.024370657 -0.018902628 -0.10319857 -0.11276472 -0.093259454
-0.041418716 0.03214235 -0.0680651 0.121530145 0.052185968 -0.055173103 0.047544263 0.049650185
0.038790833 -0.09119549 0.015470073 0.10886058 -0.041242458 0.060748886 -0.060646135 0.11899012
0.034247663 -0.10133593 0.06750749 -0.07671396 0.07460657 -0.08613854 -0.05086629 -0.028075498
-0.035285287 0.062178317 -0.016275372 -0.0071036965 0.10582026 -0.06443383 0.0025101006 0.022607043
0.066195816 0.009180483 -0.10816014 0.11020107 -0.0073746294 -0.09102346 0.031862978 0.096801564
-0.021178558 -0.0025559778 -0.07383768 -0.012829256 -0.012222707 0.032555267 -0.004458598 -0.005675291
0.09340252 -0.03702323 0.03343126 0.04764269 -0.028551655 0.016401082 -0.06932618 -0.07228911
0.011351988 -0.060615864 0.0108218305 -0.04331009 -0.101390526 -0.053091407 -0.02976799 -0.030431971
0.0054291934 -0.09710396 -0.09876349 -0.12227441 0.025644653 0.066521525 -0.028087325 0.0062835324
-0.0020621787 0.014743939 0.0048168004 0.08137727 -0.0022011853 -0.07952024 0.09665425 -0.03059951
0.03164662 -0.010598153 0.09227769 -0.024065418 -0.003991559 0.027602315 -0.039644398 0.044146486
-0.00014766317 -0.021605423 0.08992333 0.0009085238 -0.0877578 0.0018054759 -0.05673352 -0.079689786
0.1221119 -0.0617975 0.02575463 -0.028762434 -0.12027873 -0.015922103 -0.043325424 0.07715141
-0.07453312 -0.11107375 -0.098223075 0.10875682 -0.010806148 -0.02020835 -0.05557264 0.03319668
0.04192514 -0.08757884 -0.028765574 -0.074871294 -0.09421282 0.0754018 0.02750852 0.023876086
-0.0002895238 0.0028205663 0.038236976 -0.07795811 -0.106517345 -0.069469005 0.08244054 0.003471151
-0.05130501 0.06515889 0.021555657 0.09395539 0.017349036 -0.1197254 -0.052610293 -0.024621246
0.046467327 0.020406649 -0.03890243 0.0651661 -0.09608689 -0.05410209 -0.06973213 -0.09974257
0.028600356 -0.1228147 0.1057294 -0.047148485 0.016558385 -0.0423664 0.10007122 0.08497652
0.043348048 0.033123545 0.11756751 0.03327422 0.04675532 0.10110741 -0.113835245 0.100106865
0.008522227 -0.08470128 0.10883184 0.11046223 -0.031756878 -0.12039471 -0.086430326 0.037679188
0.04965779 -0.042855576 0.10720973 -0.095416896 0.06246464 -0.08100085 0.10846037 0.1436933
0.022101114 -0.08605738 -0.036142662 -0.06512939 0.056007557 0.019907981 -0.044606354 -0.10326861
-0.07823388 0.0794791 0.03603196 -0.117500305 0.097937316 -0.0024864746 -0.07197186 -0.008607909

layers.12.bias f4 [5]
00000000: 9cad 993e 9195 193e 5fa7 6d3d 31fb 703e
00000010: 602e e83d
0.30015266 0.14998461 0.058020946 0.23533322 0.1133697
