dqn5_best.pt (torch, 7391 bytes, 10 tensors)

layers.0.weight f4 [16, 5]
0	0x3be1f8a5	0.006896096
1	0xbee60912	-0.44928795
2	0x3e6b2e16	0.22966799
3	0x3edee761	0.43535903
4	0xbf0a0aef	-0.53922933
5	0xbeb43051	-0.35193112
6	0x3d9e88f0	0.077409625
7	0xbe97ed89	-0.29673412
8	0xbecb5beb	-0.39718565
9	0x3ea2263d	0.31669798
10	0x3f18cb8c	0.5968559
11	0x3eafe3c1	0.3435345
12	0xbefb572b	-0.4908994
13	0xbe1108f4	-0.14163572
14	0x3ebb0d25	0.36533466
15	0xbdec2cea	-0.11532004
16	0xbea02c3a	-0.31283742
17	0x3d8aa3e8	0.06769544
18	0x3f2eddce	0.683072
19	0x3d02806c	0.031860754
20	0x3f1bc481	0.60846716
21	0xbe4bf30d	-0.19916935
22	0xbe031396	-0.1280044
23	0x3ef817cb	0.48455653
24	0xbed09546	-0.40738887
25	0x3c01a4e1	0.007912845
26	0xbdac3dd1	-0.08410228
27	0x3f2d9976	0.6781229
28	0xbd9063f4	-0.070503145
29	0x3ef4581a	0.47723466
30	0x3e6f0e2d	0.23345251
31	0x3e955a86	0.29170626
32	0x3c1ac944	0.0094473995
33	0xbf7ddfd4	-0.9916966
34	0x3f08ad8c	0.5338981
35	0xbe62f75b	-0.22164671
36	0x3e18f48e	0.1493704
37	0xbf349aa2	-0.7054845
38	0x3c41e57e	0.0118345
39	0x3d25d6da	0.0404881
40	0x3f03702f	0.51343054
41	0x3ea729e1	0.3264914
42	0xbedd0bc0	-0.43173027
43	0x3e60df1b	0.21960108
44	0x3eadd453	0.33951053
45	0x3ebf423a	0.37355214
46	0xbf2e3a26	-0.6805748
47	0x3f40f1f8	0.75369215
48	0xbd9c830a	-0.07642181
49	0x3eb1d977	0.34736225
50	0x3d58c0e8	0.052918345
51	0x3db222d1	0.08698047
52	0x3efaf53b	0.4901522
53	0x3d59f5c7	0.053212907
54	0x3f11f248	0.57010317
55	0x3eed467e	0.46342844
56	0x3ec49539	0.38395098
57	0x3efdb898	0.49554896
58	0xbdc92d51	-0.098230965
59	0xbd861e06	-0.06548695
60	0x3e06a2fd	0.13148113
61	0xbdba9d9b	-0.09112092
62	0xbf4ab211	-0.7917796
63	0x3e81a628	0.2532208
64	0x3edcbe45	0.43113914
65	0x3d232fb7	0.039840426
66	0xbf183e5e	-0.59470165
67	0x3f07e350	0.53081226
68	0x3eee16c3	0.4650174
69	0xbea73381	-0.32656482
70	0x3f1d548f	0.6145715
71	0xbf098f72	-0.53734505
72	0xbdb19805	-0.086715735
73	0xbdd8d400	-0.10587311
74	0xbe85d7a6	-0.2614109
75	0xbe833335	-0.25625005
76	0xbc858b48	-0.016301766
77	0x3ed4fa68	0.41597295
78	0x3ebc15e5	0.36735454
79	0x3f08dddc	0.5346353

layers.0.bias f4 [16]
0	0xbde587c9	-0.112075396
1	0x3bd55b71	0.006511145
2	0xbdae1a70	-0.08501136
3	0xbda21a17	-0.079151325
4	0xbd44677d	-0.047950257
5	0x3da54ee7	0.0807169
6	0xbd55f5ca	-0.052236356
7	0xbd4d0c08	-0.050060302
8	0xbdf06d4b	-0.11739596
9	0xbdda8ded	-0.106716014
10	0x3c033548	0.008008309
11	0xbd9f64cf	-0.077828996
12	0xbd5d04f8	-0.053959817
13	0xbd926d52	-0.071497574
14	0xbe3436b5	-0.17598994
15	0x3e905ffe	0.28198236

layers.2.weight f4 [16, 16]
0	0x3ebf6a12	0.37385613
1	0xbdcd3d38	-0.10021442
2	0xbe638927	-0.22220288
3	0xbeba1499	-0.3634384
4	0xbe90b933	-0.28266296
5	0xbe9301e3	-0.28712377
6	0xbb99c371	-0.004692488
7	0x3d97db07	0.07414823
8	0x3e295977	0.16538034
9	0x3e8853a1	0.26626304
10	0xbeffa8ed	-0.49933568
11	0x3ea6f0a4	0.3260547
12	0x3c4d7031	0.012538956
13	0x3e357a12	0.17722347
14	0x3e27f078	0.16400325
15	0x3ed5f74a	0.4179023
16	0x3ef18300	0.47170258
17	0xbf0cf17a	-0.55055964
18	0xbf096676	-0.5367197
19	0x3f205243	0.6262552
20	0xbd9765f3	-0.07392492
21	0xbf1b0b34	-0.6056397
22	0x3e97e42f	0.29666278
23	0xbee1f4ef	-0.44132182
24	0x3f0c4fe8	0.5480943
25	0xbd986942	-0.07441951
26	0xbe8d48ee	-0.27594703
27	0x3e82a122	0.2551356
28	0x3d937869	0.07200701
29	0xbeb0ec80	-0.34555435
30	0xbef8c6ad	-0.48589078
31	0xbe8bb260	-0.27284527
32	0xbea60e35	-0.32432714
33	0xbc543cc0	-0.012953937
34	0x3eff6ade	0.4988622
35	0x3e528b48	0.20560944
36	0x3d224560	0.039616942
37	0xbeb14452	-0.34622437
38	0xbf16101c	-0.5861833
39	0x3e201f08	0.15636837
40	0xbf1492ca	-0.5803648
41	0x3eef6622	0.4675761
42	0xbe9b3eb2	-0.3032127
43	0x3e135e88	0.1439153
44	0x3c980b20	0.018559992
45	0xbf02aa70	-0.51041317
46	0xbebe2b53	-0.3714243
47	0x3e078b70	0.13236785
48	0x3ce886eb	0.028384646
49	0x3e82065e	0.25395483
50	0x3c4634f6	0.012097588
51	0xbedf8b49	-0.43660954
52	0x3ea863b5	0.3288857
53	0xbdb63ed4	-0.08898702
54	0x3e847a3a	0.258745
55	0xbed92e39	-0.42418078
56	0x3ea0708f	0.31335875
57	0x3ed2bfbf	0.41161916
58	0x3ea9d976	0.33173722
59	0x3ee6316c	0.4495958
60	0x3f13e87f	0.57776636
61	0x3ec4f589	0.38468578
62	0x3d132395	0.035922606
63	0x3f3999aa	0.725001
64	0xbe557a07	-0.20847331
65	0x3d2a2a15	0.04154404
66	0x3dc2a172	0.095034495
67	0x3dfa1b95	0.12212292
68	0xbed3601d	-0.41284266
69	0x3c9c5a5b	0.019086054
70	0xbea737c1	-0.32659724
71	0x3e5415b8	0.2071141
72	0xbe2dd476	-0.16975579
73	0xbe13e040	-0.14441013
74	0x3e85841b	0.2607735
75	0x3e9dbabe	0.30806535
76	0xbeac3a7b	-0.33638367
77	0x3e88fb96	0.26754445
78	0xba362e23	-0.0006949624
79	0xbf049440	-0.5178871
80	0xbd5ea162	-0.054353125
81	0x3f1ea469	0.6196962
82	0x3e5b49a0	0.21414804
83	0x3f05eb96	0.523126
84	0xbd83fa3b	-0.06444212
85	0x3edff643	0.4374257
86	0x3ea2af5a	0.31774408
87	0x3ea10169	0.31446388
88	0xbe9cdfbb	-0.30639443
89	0xbef9e4f5	-0.48807493
90	0xbe258a73	-0.16166095
91	0x3cbc0464	0.022951312
92	0xbec4d3ed	-0.38442937
93	0x3e7c6da1	0.24651195
94	0xbf389641	-0.7210427
95	0xbe905374	-0.2818867
96	0xbefc59bd	-0.49287215
97	0x3e683da4	0.22679764
98	0xbb8edc9e	-0.0043597957
99	0xbeb94c05	-0.3619081
100	0x3e16714b	0.14691655
101	0x3ebd2c84	0.36948025
102	0x3ea84a95	0.32869402
103	0xbf1aad5f	-0.60420793
104	0xbec8008d	-0.3906292
105	0x3ecf2185	0.4045526
106	0x3f115b25	0.567797
107	0x3e9f7d8b	0.3115047
108	0xbf2b8bc7	-0.6701016
109	0xbe552441	-0.20814611
110	0x3e979f84	0.29613888
111	0x3d0f20a4	0.034943238
112	0x3ee81b72	0.4533344
113	0x3f420544	0.75789285
114	0xbe4d4cf3	-0.20048885
115	0x3ec15a30	0.3776412
116	0x3d639f8f	0.05557209
117	0x3e50a316	0.20374712
118	0x3ed84e96	0.42247456
119	0x3e4e334e	0.20136759
120	0x3ee426b5	0.4456078
121	0x3e603675	0.21895774
122	0xbda34446	-0.079720065
123	0x3f118058	0.5683646
124	0xbece4196	-0.40284413
125	0xbef3c18b	-0.476086
126	0x3e972c94	0.29526198
127	0x3f1e3700	0.61802673
128	0xbf0470db	-0.51734704
129	0x3d86d780	0.06584072
130	0xbecc0b8a	-0.39852554
131	0x3e4451f4	0.19171888
132	0xbf03726f	-0.51346487
133	0xbf02b1b0	-0.5105238
134	0xbda929b8	-0.0825991
135	0x3f110ad9	0.5665718
136	0xbea03d41	-0.31296733
137	0xbf06e0b8	-0.52686644
138	0xbe491e33	-0.19640426
139	0x3e438ff9	0.1909789
140	0x3e4ed2f8	0.20197666
141	0x3eea2faf	0.45739505
142	0x3def873e	0.11695717
143	0x3e832f22	0.25621897
144	0xbe14f6a3	-0.1454721
145	0xbea94089	-0.3305705
146	0xbf0e21b6	-0.5552019
147	0x3ec49876	0.38397568
148	0xbd0182c2	-0.03161884
149	0x3d9f330d	0.07773409
150	0xbc095fbd	-0.008384642
151	0xbeb68dd5	-0.35655084
152	0xbe8fcfbf	-0.28088185
153	0xbea69a0f	-0.32539412
154	0x3ec8fa11	0.39253286
155	0xbe9dec46	-0.30844325
156	0xbd66b7e9	-0.056327734
157	0x3ef11a88	0.47090554
158	0xbe8032b0	-0.25038671
159	0x3e8b1b0f	0.27169082
160	0xbea0039d	-0.31252757
161	0xbe0aa1fe	-0.13538358
162	0x3e92f6c9	0.28703907
163	0x3e64bbfb	0.22337334
164	0x3ef76e73	0.48326454
165	0x3e544a7c	0.20731539
166	0xbc8b132b	-0.016976913
167	0x3f01018c	0.50392985
168	0xbbc0afef	-0.005880348
169	0xbef014d2	-0.46890885
170	0x3f2653d2	0.6497165
171	0xbe8f592c	-0.2799772
172	0xbec1bacb	-0.37837824
173	0x3ee28055	0.44238535
174	0xbeefc706	-0.4683153
175	0xbe317b18	-0.17332113
176	0x3edd81f7	0.43263218
177	0xbed22572	-0.41044194
178	0x3ef63d9c	0.4809388
179	0x3f0ab7bc	0.54186606
180	0x3ea79b78	0.327358
181	0xbe7a9ff6	-0.24475083
182	0xbe465da7	-0.19371663
183	0x3ede845b	0.43460354
184	0xbed67bad	-0.41891232
185	0xbd7f3367	-0.06230488
186	0xbf379f88	-0.717278
187	0xbe620387	-0.22071658
188	0x3d7dde82	0.061979778
189	0xbe5ef572	-0.21773317
190	0x3e71e2d3	0.23621683
191	0x3d9082d4	0.070562035
192	0xbef0bc9e	-0.47018903
193	0x3efcef9e	0.49401563
194	0x3e334e68	0.17510378
195	0xbe0007c8	-0.12502968
196	0x3c8baf00	0.01705122
197	0xbedea0b6	-0.43481988
198	0xbd9be4f0	-0.07612026
199	0x3ef8a886	0.48566073
200	0xbea28627	-0.31742975
201	0xbf01d984	-0.5072253
202	0x3e851600	0.25993347
203	0xbebd6ec8	-0.36998582
204	0xbe90cd78	-0.2828176
205	0x3f18eadb	0.5973336
206	0xbf0e3c23	-0.5556051
207	0xbeb65c7e	-0.3561744
208	0x3e6e43db	0.23268072
209	0x3e874fe3	0.26428136
210	0x3da583e2	0.08081795
211	0x3f06d407	0.5266728
212	0x3bb3c15f	0.005485698
213	0xbf3be878	-0.73401594
214	0xbdafd709	-0.085859366
215	0xbf0fbb92	-0.56145585
216	0xbbb40a05	-0.0054943585
217	0xbe04b071	-0.12957932
218	0xbef02f31	-0.46911004
219	0x3e8ba650	0.27275324
220	0x3dca9812	0.09892286
221	0x3da24415	0.07923142
222	0x3ea554fb	0.32291397
223	0x3f134f2c	0.5754268
224	0x3dd35c1f	0.10320305
225	0xbe4dc529	-0.20094742
226	0xbacf9975	-0.001583858
227	0x3de24167	0.11047631
228	0x3e933e0c	0.28758276
229	0xbf2f00eb	-0.68360776
230	0x3d8d361d	0.06895087
231	0x3ee8f06c	0.45495927
232	0x3d8f3279	0.06992049
233	0xbea8c0a0	-0.3295946
234	0x3e1455b2	0.14485815
235	0xbe274239	-0.16333856
236	0xbead8aa9	-0.33894852
237	0xbeb54dff	-0.3541107
238	0x3e28d275	0.16486533
239	0x3f0c04a8	0.54694605
240	0xbf19d20b	-0.60086125
241	0x3eb99b08	0.36251092
242	0x3efd2d87	0.49448797
243	0xbe85adda	-0.261092
244	0xbeeb13a6	-0.45913428
245	0xbd5cbbcf	-0.053890046
246	0xbe4940c7	-0.19653617
247	0x3dfd71f0	0.123752475
248	0xbf02496b	-0.50893277
249	0xbf0280e1	-0.50977904
250	0xbe90540d	-0.28189126
251	0xbefb3dc3	-0.49070558
252	0x3e43e4ee	0.19130298
253	0x3effe1fe	0.49977106
254	0x3d01f7f0	0.031730592
255	0x3e93542e	0.28775162

layers.2.bias f4 [16]
0	0xbddb899a	-0.10719605
1	0x3d14515e	0.03621041
2	0x00000000	0.0
3	0x3cbd0dfc	0.023077957
4	0xbdd2670a	-0.102735594
5	0xbd0ffb9d	-0.035152066
6	0xbdc2f8a8	-0.09520084
7	0x3d333073	0.043747377
8	0xbdbe569e	-0.09293865
9	0xbe4e815c	-0.20166534
10	0x3e05c5c1	0.13063718
11	0xbd11985a	-0.035545684
12	0x00000000	0.0
13	0xbe0a4e1c	-0.13506359
14	0xbe16229c	-0.1466164
15	0x3a63c8b9	0.0008689273

layers.4.weight f4 [16, 16]
0	0x3c4daea3	0.012553844
1	0xbe52bb64	-0.20579296
2	0xbec754f0	-0.3893199
3	0x3d572fcf	0.05253583
4	0xbdc0adcd	-0.0940815
5	0xbf214c49	-0.63007027
6	0x3ee9d55d	0.45670596
7	0xbf13af00	-0.57688904
8	0x3e9bf720	0.3046198
9	0x3d683ad5	0.05669673
10	0x3eed94ef	0.4640269
11	0xbe87333c	-0.26406276
12	0x3e287ee4	0.16454655
13	0xbef648c2	-0.48102385
14	0xbed1442d	-0.40872326
15	0xbc4d4cc0	-0.012530506
16	0x3f146053	0.5795948
17	0xbd9e51a1	-0.07730413
18	0xbd09ff90	-0.03369099
19	0x3eaa3f23	0.33251294
20	0xbd047412	-0.032337256
21	0xbe912c3f	-0.2835407
22	0xbe98ea1a	-0.29866105
23	0xbeadc0cc	-0.33936155
24	0x3f1929bb	0.598293
25	0xbf5d995c	-0.8656213
26	0xbf047f44	-0.5175669
27	0x3e44723a	0.19184199
28	0x39c73800	0.0003799796
29	0x3e402944	0.18765742
30	0xbed2d392	-0.4117704
31	0x3e85fa80	0.2616768
32	0x3ea7a1be	0.32740587
33	0x3da1a049	0.078919
34	0xbea021ad	-0.31275693
35	0x3e9888b6	0.29791802
36	0x3e7dae9f	0.24773644
37	0xbe99dca3	-0.30051145
38	0xbc61f162	-0.01379046
39	0x3e1e220c	0.15442675
40	0xbe90953e	-0.28238863
41	0x3e1c9283	0.15290265
42	0x3ead5cb7	0.33859798
43	0x3ecdb063	0.40173635
44	0xbef03a6c	-0.46919572
45	0x3efd32b5	0.4945275
46	0x3d1026dd	0.035193313
47	0x3d0cda9e	0.034388177
48	0x3deb4f53	0.11489739
49	0xbdee32a9	-0.116307564
50	0xbf0be0b7	-0.5463976
51	0xbeeeaf7f	-0.46618268
52	0xbdf73093	-0.12069812
53	0x3eec275b	0.46123776
54	0xbeb1e4f1	-0.3474498
55	0x3f1d154a	0.6136061
56	0xbe8ca115	-0.27466646
57	0x3eda59e1	0.42646697
58	0x3daaee6c	0.083462566
59	0xbf0750e6	-0.52857816
60	0x3eedbaae	0.46431488
61	0xbee412ba	-0.44545537
62	0xbe2daea1	-0.16961147
63	0xbe3e6270	-0.18592238
64	0x3ef2a5a2	0.47391993
65	0xbf0297ea	-0.5101305
66	0xbf119bcf	-0.5687837
67	0x3d20c691	0.039251868
68	0xbe3ababc	-0.18235296
69	0xbecaab4b	-0.3958381
70	0xbeca6bcf	-0.39535376
71	0xbf15ae9c	-0.5846956
72	0x3f01fd89	0.5077749
73	0xbf05c75f	-0.5225734
74	0x3e2d0027	0.1689459
75	0x3e9cfd1d	0.3066186
76	0x3d64cbc0	0.055858374
77	0x3e22305a	0.15838757
78	0x3e6b06ba	0.22951785
79	0xbf0f5434	-0.5598786
80	0x3ee08d0e	0.43857616
81	0x3e14ec1c	0.14543194
82	0x3f13ccc5	0.5773433
83	0xbea16c74	-0.31528056
84	0xbe9b7036	-0.30359048
85	0x3f0bd0f5	0.5461572
86	0xbf1bbe8d	-0.6083763
87	0xbebc3054	-0.3675562
88	0x3ed8714e	0.42273945
89	0x3e80fd34	0.2519318
90	0xbee4064c	-0.44536054
91	0xbeb89f01	-0.3605881
92	0x3ee52346	0.44753474
93	0x3e6b6498	0.22987592
94	0xbe1325fa	-0.14369956
95	0xbefc5e60	-0.49290752
96	0xbf3c0e6b	-0.734595
97	0x3e903795	0.28167406
98	0x3dad1750	0.08451712
99	0x3e165b42	0.1468325
100	0x3bf82b2f	0.0075735073
101	0x3f113e5b	0.5673577
102	0x3cacfbd9	0.021116184
103	0xbc8a49bc	-0.016880862
104	0x3ec20676	0.37895554
105	0xbf224eae	-0.63401306
106	0xbeebff87	-0.4609339
107	0x3e727c65	0.23680265
108	0x3e21e918	0.15811574
109	0xbdda1a1c	-0.10649511
110	0xbd08f3cf	-0.03343564
111	0xbe0dcb50	-0.13847089
112	0xbe5256ea	-0.20540968
113	0xbeede992	-0.46467263
114	0x3de19268	0.11014253
115	0xbdccf8c5	-0.100083865
116	0x3ed6113f	0.41810033
117	0xbed709f7	-0.4199979
118	0x3e447585	0.19185455
119	0xbf224380	-0.63384247
120	0xbf11ecfe	-0.57002246
121	0x3e975a46	0.2956106
122	0x3ea71bba	0.3263834
123	0x3c06e900	0.0082342625
124	0x3dd048a0	0.10170102
125	0x3f13fe4c	0.578099
126	0xbefc6ab3	-0.49300155
127	0xbe07b5ec	-0.13252991
128	0xbecb3950	-0.39692163
129	0xbed4aa1d	-0.41536036
130	0xbe981878	-0.29706168
131	0x3e8e066b	0.27739272
132	0x3e7e5f83	0.24841122
133	0x3da56c96	0.08077352
134	0x3dab5c1d	0.083671786
135	0x3d2042c6	0.03912618
136	0xbdbf217e	-0.0933256
137	0x3d9f3e9e	0.07775615
138	0x3f01e93b	0.50746506
139	0x3e9e1d61	0.3088179
140	0x3dc82fb8	0.09774727
141	0xbe5bc251	-0.21460845
142	0x3ed7347f	0.4203224
143	0xbea5629c	-0.32301795
144	0x3ecbde8a	0.3981822
145	0xbef7b092	-0.483769
146	0x3ea39d1c	0.31955802
147	0x3e0a5dad	0.13512297
148	0x3e8a738b	0.27041277
149	0xbf187b1a	-0.5956284
150	0xbeb44134	-0.35205996
151	0xbeaaa83e	-0.33331484
152	0x3daaf300	0.0834713
153	0x3f05d345	0.52275497
154	0xbe6718a5	-0.22567995
155	0xbe7d9990	-0.2476561
156	0xbd145e90	-0.036222994
157	0x3ed39a40	0.4132862
158	0xbda8aff3	-0.08236685
159	0x3e7be348	0.2459842
160	0x3e4334cf	0.19063114
161	0x3f0334ad	0.5125225
162	0x3ed15902	0.4088822
163	0x3f107abf	0.56437296
164	0x3f0a8e2e	0.541232
165	0xbea410ba	-0.3204401
166	0x3edc78fc	0.43061054
167	0xbe7563fc	-0.23963922
168	0x3f207117	0.6267256
169	0xbe9c3824	-0.30511582
170	0x3f1b50d0	0.60670185
171	0x3e1fb6c7	0.15597068
172	0xbd4864b0	-0.048924148
173	0x3f16ec66	0.58954465
174	0xbf1c065c	-0.60947204
175	0x3eb9e46e	0.3630709
176	0xbbbac37f	-0.0056995745
177	0x3c8c5bfd	0.017133707
178	0x3f1448e1	0.57923704
179	0x3ef658c5	0.481146
180	0xbef94da9	-0.48692062
181	0x3eb146e7	0.34624407
182	0x3ee098df	0.4386663
183	0x3ebd155f	0.36930367
184	0xbee0f3fc	-0.43936145
185	0xbe951d69	-0.29124
186	0xbdef45de	-0.11683248
187	0x3dae62f5	0.08514968
188	0x3f19dd17	0.6010298
189	0x3df82fb2	0.12118472
190	0x3f0fa343	0.5610849
191	0xbe9cfd40	-0.30661964
192	0x3cee7408	0.029108062
193	0xbde88874	-0.11354151
194	0xbdbc15d8	-0.09183854
195	0x3e5f2d36	0.2179459
196	0xbf1b7c0f	-0.60736173
197	0xbea95263	-0.3307067
198	0x3e7ee9bc	0.2489385
199	0xbeedaf15	-0.4642264
200	0xbf159778	-0.5843425
201	0xbf09fb48	-0.5389905
202	0xbe199fba	-0.15002337
203	0xbe99eaba	-0.30061895
204	0x3ed43d66	0.41453093
205	0xbb40bc87	-0.0029409246
206	0x3ca7bb2e	0.020474996
207	0xbdcaad10	-0.0989629
208	0xbebb4104	-0.3657304
209	0x3e46b588	0.19405186
210	0xbe49772c	-0.19674367
211	0xbf02e229	-0.51126343
212	0x3bffb000	0.0078029633
213	0x3e874e9e	0.26427168
214	0xbf0af44c	-0.5427902
215	0xbebbea89	-0.36702374
216	0xbea48ace	-0.3213715
217	0x3ed80c1e	0.42196745
218	0xbef48d69	-0.47764137
219	0xbdb954d8	-0.09049386
220	0x3d31fee0	0.04345596
221	0xbe4ae59a	-0.19814149
222	0x3eab6bee	0.3348078
223	0xbe8b65ff	-0.27226254
224	0x3ea89a37	0.32930157
225	0xbe996ebc	-0.29967296
226	0xbe8eb5d1	-0.2787309
227	0xbe0fee02	-0.14055637
228	0x3e612407	0.219864
229	0x3ecd4bfe	0.4009704
230	0x3cb4d970	0.022076339
231	0xbe07d977	-0.1326655
232	0x3e56eeac	0.20989484
233	0xbe02f4ba	-0.12788668
234	0x3cb3057d	0.021853203
235	0xbeaa4ab4	-0.3326012
236	0xbe821329	-0.25405243
237	0x3d7202d2	0.05908472
238	0xbef2cac6	-0.4742033
239	0x3f0450db	0.51685876
240	0xbdadbb28	-0.08482963
241	0x3e11758c	0.14204997
242	0x3de5e750	0.1122576
243	0xbf0dead2	-0.5543643
244	0xbecaf18c	-0.3963741
245	0xbe4cc132	-0.19995573
246	0x3ebc78a7	0.368108
247	0x3ec4f799	0.38470152
248	0x3e9d2bb2	0.306974
249	0x3dd2837e	0.102789864
250	0xbe50fa58	-0.20407999
251	0x3e66e7f9	0.22549428
252	0x3e0e5c10	0.13902307
253	0xbea0d375	-0.3141133
254	0x3f027dd9	0.5097328
255	0x3e7cbfbc	0.24682516

layers.4.bias f4 [16]
0	0xbe01ec07	-0.12687694
1	0xbdfebd1c	-0.124384135
2	0x3e02654c	0.12733954
3	0x3e382776	0.17983803
4	0xbcb696a2	-0.022288624
5	0x00000000	0.0
6	0xbe250dd0	-0.1611855
7	0xbd2e89e7	-0.042611983
8	0x3d6ccadd	0.057810653
9	0xbe2a8330	-0.16651607
10	0x3d101df8	0.03518483
11	0x3d88f247	0.06686836
12	0xbda1207d	-0.07867525
13	0x00000000	0.0
14	0x3e354c9f	0.1770501
15	0xbde3980a	-0.111129835

layers.6.weight f4 [16, 16]
0	0xbdf0e4a5	-0.117623605
1	0x3edf1cbb	0.43576607
2	0xbd91baae	-0.071156844
3	0xbe60f662	-0.21968988
4	0xbeadbf04	-0.33934796
5	0xbeac1db8	-0.33616424
6	0x3dbd5d0f	0.09246265
7	0xbeca8ca8	-0.39560437
8	0x3ef02bcc	0.46908414
9	0xbe9b2f15	-0.30309358
10	0x3e88520b	0.26625094
11	0x3e757cc8	0.23973382
12	0xbecf66a9	-0.4050801
13	0x3f08848d	0.53327256
14	0xbec97d83	-0.3935357
15	0x3e44f942	0.1923571
16	0xbecd0189	-0.40040234
17	0xbeff2d7e	-0.49839395
18	0x3e746e81	0.23870279
19	0x3e60de6f	0.21959852
20	0x3e47af13	0.1950038
21	0x3dc50560	0.09620166
22	0xbe83edb0	-0.2576728
23	0xbd9809a1	-0.074237116
24	0x3e7a6ee8	0.2445637
25	0x3ed31847	0.4122946
26	0xbe1e012b	-0.15430133
27	0x3ec677fe	0.38763422
28	0xbda118f9	-0.07866091
29	0xbe91de91	-0.28490117
30	0x3e660ede	0.22466609
31	0xbe897f5b	-0.26854977
32	0xbeae3f67	-0.34032747
33	0x3e8ba72e	0.27275985
34	0xbe903a85	-0.28169647
35	0xbe4c252d	-0.19936056
36	0xbe1c9a44	-0.15293223
37	0x3efc92f2	0.4933086
38	0x3efc1d46	0.49241084
39	0xbed7ca44	-0.42146504
40	0xbf148785	-0.58019286
41	0xbf18ec4a	-0.5973555
42	0xbf1dea7b	-0.61685914
43	0x3ead0dfa	0.33799726
44	0xbf0673ad	-0.5252026
45	0x3eea0506	0.45706958
46	0x3ec38340	0.38186073
47	0xbd3b3a89	-0.04571012
48	0x3d56771e	0.052359693
49	0xbeaf04ba	-0.34183294
50	0x3e952cba	0.29135686
51	0x3ec544c2	0.3852902
52	0x3e95b497	0.29239342
53	0xbec51c92	-0.3849836
54	0x3e92e9de	0.28694052
55	0x3e85c398	0.2612579
56	0x3eaec0f3	0.34131584
57	0x3ea9401a	0.33056718
58	0x3e347721	0.17623569
59	0xbc3c5746	-0.011495417
60	0x3f23c26f	0.6396856
61	0xbe9d6fed	-0.30749455
62	0x3d94b8e5	0.07261828
63	0xbec700a4	-0.38867676
64	0xbf1c90bb	-0.6115834
65	0xbedf23be	-0.43581957
66	0x3efccdd6	0.4937579
67	0x3d07fed0	0.033201993
68	0xbe1ed39c	-0.1551041
69	0xbe54bacc	-0.20774382
70	0xbd9d49a0	-0.076800585
71	0xbdbcb8d8	-0.09214944
72	0xbf15d96b	-0.5853488
73	0x3e23b270	0.15986037
74	0xbebce133	-0.36890563
75	0xbdc93279	-0.0982408
76	0xbdcb0428	-0.09912902
77	0x3ec9d62a	0.39421207
78	0x3daa2900	0.083086014
79	0xbf141254	-0.57840466
80	0x3f473764	0.77818894
81	0xbf020155	-0.5078328
82	0x3ee60954	0.44928992
83	0x3ef5d561	0.48014358
84	0xbe925965	-0.28583828
85	0xbde13f50	-0.10998404
86	0x3e6f4f77	0.23370157
87	0x3ec27007	0.37976095
88	0x3f13f3f2	0.57794106
89	0xbe30b5b1	-0.1725681
90	0x3f032e32	0.51242363
91	0x3e1401ed	0.1445386
92	0xbe6f7284	-0.23383528
93	0x3eb50866	0.3535797
94	0x3f0897e3	0.5335676
95	0xbec93443	-0.39297685
96	0xbea08c6c	-0.31357133
97	0xbe421c30	-0.18956065
98	0xbeae30fb	-0.34021744
99	0xbed7f51a	-0.42179185
100	0x3e9f6b08	0.31136346
101	0xbeddad9e	-0.43296522
102	0xbe909f35	-0.28246465
103	0x3e7980a4	0.24365479
104	0x3dade2d4	0.0849053
105	0x3e369adf	0.17832516
106	0xbe104625	-0.14089258
107	0x3e4a92d4	0.19782573
108	0xbdae0018	-0.08496112
109	0x3f0e60a9	0.5561624
110	0xbcc281ee	-0.023743596
111	0x3ee53ee0	0.44774532
112	0x3e9309dd	0.28718463
113	0xbe8eacc1	-0.27866176
114	0xbe94deb4	-0.2907616
115	0x3ecfb911	0.40570882
116	0x3d235c00	0.03988266
117	0xbdd13d60	-0.102167845
118	0xbf1ee19b	-0.62062997
119	0x3f0bf6b5	0.5467332
120	0x3e5e23ff	0.21693419
121	0xbece9971	-0.40351442
122	0xbead4e30	-0.33848715
123	0x3e7ee3c6	0.24891576
124	0xbe852b34	-0.26009524
125	0x3e0fd6c8	0.14046776
126	0x3ebf7a59	0.3739803
127	0xbed6641a	-0.41873246
128	0xbdbc9e90	-0.09209931
129	0x3f0189bf	0.5060081
130	0x3ec85886	0.39130038
131	0x3ef7a016	0.48364323
132	0xbdbba728	-0.09162742
133	0x3ef3dcf2	0.47629505
134	0xbe483e94	-0.19555122
135	0x3e653b98	0.22386014
136	0xbe75bf30	-0.23998713
137	0xbefc6541	-0.49296
138	0xbe1d28f8	-0.1534766
139	0xbf18c649	-0.5967756
140	0xbf19775e	-0.59947765
141	0x3df05ea0	0.11736798
142	0xbd24f100	-0.040268898
143	0x3e8b715c	0.27234924
144	0x3f0872ce	0.5330018
145	0xbe9a9070	-0.30188322
146	0x3ea5f7c5	0.32415596
147	0x3e937189	0.28797558
148	0xbef5be35	-0.4799668
149	0x3ef47162	0.47742754
150	0x3ee0a8d0	0.43878794
151	0xbd3d5a36	-0.04622861
152	0xbe6e74b9	-0.23286714
153	0x3e7d12c3	0.24714188
154	0x3eac5ab8	0.33662963
155	0x3e901628	0.28141904
156	0x3dbb4f7e	0.09146021
157	0x3d073df0	0.033018053
158	0xbdf9add6	-0.1219136
159	0x3e3f304a	0.18670765
160	0x3d6b4e90	0.05744797
161	0xbe9bdee8	-0.304435
162	0xbee80bdc	-0.45321548
163	0x3e162970	0.14664245
164	0x3d95f1e0	0.073215246
165	0x3f11db97	0.5697569
166	0x3d8ab338	0.067724645
167	0x3f1c8861	0.611456
168	0xbe77ecd4	-0.24211437
169	0xbedc88bc	-0.4307307
170	0xbda45168	-0.080233395
171	0xbe6497dc	-0.22323555
172	0xbdd09b20	-0.10185838
173	0xbe4084b6	-0.18800625
174	0x3f0f5b15	0.55998355
175	0x3e8b2988	0.27180123
176	0x3ddb1383	0.10697081
177	0x3dde9440	0.1086812
178	0x3f1e2832	0.61780083
179	0x3eb28fc2	0.34875304
180	0xbe21dc22	-0.1580663
181	0xbf160b0a	-0.58610594
182	0xbee8683c	-0.45392025
183	0xbe5ef6e6	-0.21773872
184	0x3e5399e0	0.20664167
185	0x3e2ab711	0.16671397
186	0x3ea21a50	0.316607
187	0x3e9bb419	0.3041084
188	0xbe1794f2	-0.14802912
189	0x3e972a18	0.29524302
190	0x3eb6cf30	0.35704947
191	0x3e92833b	0.28615746
192	0x3ecced98	0.4002502
193	0xbec0d897	-0.37665245
194	0x3ddc3384	0.10752013
195	0xbdd39fd5	-0.1033322
196	0x3f004483	0.5010454
197	0xbef552b0	-0.47914648
198	0x3ea8dd38	0.32981277
199	0xbed83abe	-0.42232317
200	0xbeae75c7	-0.34074232
201	0xbef2f6a3	-0.47453794
202	0x3e24f628	0.16109526
203	0x3f0d0054	0.55078626
204	0xbe2287c8	-0.15872109
205	0x3d33e0a0	0.04391539
206	0xbf219d25	-0.6313041
207	0xbec57f2e	-0.38573593
208	0x3e7746e8	0.24148142
209	0xbdb3c6d8	-0.08778161
210	0xbdcbe1a8	-0.0995515
211	0xbeb170c1	-0.34656337
212	0x3ec2d046	0.38049525
213	0xbef019b0	-0.46894598
214	0xbe9044fa	-0.28177625
215	0x3ecbdd46	0.39817256
216	0x3e8a0bf8	0.26962256
217	0xbf1056be	-0.5638236
218	0xbf184811	-0.59484965
219	0xbeb53526	-0.35392112
220	0xbf16b831	-0.58874804
221	0x3edbb73e	0.4291324
222	0xbe986005	-0.29760757
223	0x3e79623c	0.2435388
224	0xbec8ac66	-0.3919403
225	0x3e89d586	0.26920718
226	0x3f2b6a3c	0.66958976
227	0x3e28fb7b	0.16502182
228	0x3f1a1bb5	0.6019853
229	0xbe0677c6	-0.13131627
230	0x3da74782	0.08167936
231	0xbef4c748	-0.4780829
232	0xbe0d8a02	-0.13822177
233	0xbe75d510	-0.24007058
234	0x3dbd3de9	0.09240324
235	0x3de51fb8	0.111876905
236	0x3cbcda48	0.023053303
237	0xbe8190d7	-0.25305817
238	0x3e7824af	0.24232744
239	0x3d0b5af6	0.034022294
240	0xbf0e1782	-0.5550462
241	0xbe7deb75	-0.24796851
242	0x3e906261	0.28200057
243	0xbf134c88	-0.5753865
244	0x3f109981	0.5648423
245	0xbd8829f0	-0.06648624
246	0x3e4009d1	0.18753745
247	0xbe14716c	-0.14496392
248	0xbeeb2efd	-0.45934287
249	0x3e907495	0.28213945
250	0x3e03faf7	0.12888704
251	0xbec494cb	-0.3839477
252	0x3e809ba4	0.25118744
253	0xbea43291	-0.3206983
254	0xbee63120	-0.44959354
255	0xbf1ddea0	-0.61667824

layers.6.bias f4 [16]
0	0x3d5aacef	0.05338758
1	0x3ddaba48	0.106800616
2	0xbd10bf04	-0.035338417
3	0x3c8d2490	0.017229348
4	0xbda0598e	-0.07829581
5	0x3dff03c5	0.12451891
6	0xbc59f34d	-0.013302636
7	0xbcd69b5a	-0.026197124
8	0x00000000	0.0
9	0xba5597ae	-0.0008147907
10	0x00000000	0.0
11	0x3ddc091d	0.10743926
12	0x3d056fcf	0.032577332
13	0x00000000	0.0
14	0x3e37fac6	0.17966756
15	0xbd52fea1	-0.051512364

layers.8.weight f4 [5, 16]
0	0x3f2637b6	0.6492876
1	0x3f2bd21d	0.6711748
2	0x3f060182	0.5234605
3	0x3f1a68f0	0.6031637
4	0x3f225a0a	0.6341864
5	0x3dfdfd63	0.12401845
6	0xbf2d9299	-0.67801815
7	0xbed41847	-0.41424772
8	0x3ee6e116	0.45093602
9	0xbef03e73	-0.46922645
10	0xbdc5ff10	-0.0966779
11	0x3d83692c	0.06416544
12	0x3ddf3d4d	0.10900364
13	0xbf2f9ec7	-0.6860165
14	0x3f369346	0.7131847
15	0xbddac0a9	-0.10681278
16	0xbde8650c	-0.11347398
17	0xbe655bf4	-0.22398359
18	0xbda3dab6	-0.080007
19	0xbdc4ac34	-0.09603158
20	0xbee0ccbd	-0.43906203
21	0x3f20c76b	0.6280429
22	0x3e0cfd59	0.1376852
23	0xbddfa506	-0.109201476
24	0xbf08cafc	-0.5343473
25	0x3f4122ce	0.7544373
26	0xbe6f15d8	-0.23348176
27	0x3f0212dc	0.5081003
28	0xbec98099	-0.39355925
29	0xbdcab670	-0.098980784
30	0x3d982f2c	0.07430872
31	0x3d2fddbf	0.042936083
32	0xbcfd6c92	-0.03093556
33	0xbde07e8b	-0.10961636
34	0xbe6220d9	-0.22082843
35	0xbe2683a9	-0.16261162
36	0xbf0903ed	-0.53521615
37	0x3f229fab	0.63524884
38	0xbe900f1a	-0.28136522
39	0x3e9ba36d	0.3039812
40	0xbf221b91	-0.63323313
41	0xbefcdc9b	-0.4938706
42	0xbefd1923	-0.4943324
43	0x3eaf1274	0.34193766
44	0x3f3a40ba	0.72755015
45	0x3bb56e80	0.0055368543
46	0x3f1ba0e3	0.6079237
47	0xbf2a328e	-0.6648339
48	0xbf2b361e	-0.6687945
49	0x3e91db60	0.28487682
50	0xbed2e84f	-0.41192862
51	0xbea659ef	-0.3249049
52	0x3f06ce1f	0.52658266
53	0x3d2f6466	0.042820357
54	0x3eefae9e	0.4681291
55	0xbe5256e4	-0.20540959
56	0x3dba04b0	0.09082925
57	0x3f3a642c	0.728091
58	0x3d713c10	0.05889517
59	0x3ee8b18d	0.4544796
60	0x3f271e21	0.6528035
61	0x3f1b22cb	0.60599965
62	0x3f1b8a96	0.6075834
63	0xbed3fa9d	-0.4140214
64	0x3e9a4cf1	0.30136827
65	0x3d3bdeb6	0.04586669
66	0xbec6246e	-0.3869967
67	0xbeb11989	-0.34589794
68	0x3ed47847	0.41498014
69	0x3ed91d0c	0.42404974
70	0x3dc27785	0.09495453
71	0x3e726a96	0.23673472
72	0x3e797014	0.2435916
73	0x3f2b2949	0.6685987
74	0x3ec7368e	0.3890881
75	0xbd6af725	-0.0573646
76	0xbe347dba	-0.17626086
77	0xbf210d55	-0.6291097
78	0x3f42f444	0.7615397
79	0xbe4cfaf9	-0.20017613

layers.8.bias f4 [5]
0	0x3e75af2d	0.23992606
1	0x3e4e26c6	0.20131978
2	0x3deeb113	0.11654868
3	0x3def385d	0.11680672
4	0x3e16b820	0.14718676
