dqn6_best.pt (torch, 781215 bytes, 10 tensors)

layers.0.weight f4 [4, 1, 3, 1]
000000 2c 3a e0 be 90 e3 c0 bd 43 10 84 be 16 21 24 be
       -0.43794382 -0.09418404 -0.25793657 -0.16028246
000010 a2 8f 00 bf f4 81 7f 3e d1 7f 0c bf 83 25 9a bd
       -0.50219166 0.24951917 -0.5488253 -0.07526686
000020 e1 60 2b 3e aa 55 6c be 55 f5 7f 3e f4 b2 8c bc
       0.16736175 -0.23079553 0.2499593 -0.017175175

layers.0.bias f4 [4]
000000 0d 43 c2 3e 38 34 d3 3e 75 08 8e be ab e9 f6 3d
       0.3794178 0.41250777 -0.27740827 0.120562874

layers.3.weight f4 [8, 4, 3, 1]
000000 58 f1 66 bd 2b 77 10 3e b9 52 01 be 33 c6 8a 3d
       -0.056382507 0.14107959 -0.12629212 0.06776085
000010 42 93 32 3d fc fb 35 be 91 08 52 be 09 2f 1d 3d
       0.043597467 -0.17771906 -0.2051108 0.038374934
000020 58 17 73 3e fc 4e b9 3d 63 97 db bd d6 c8 d2 bd
       0.23739374 0.09048268 -0.10722234 -0.10292213
000030 c2 7c 12 3e 19 b6 6d be 3d 87 8a 3d 46 40 20 be
       0.14305404 -0.23213996 0.06764076 -0.15649518
000040 89 60 f8 3d 29 59 ed bd 64 8b db bc e0 4e 84 3d
       0.121277876 -0.115892716 -0.026799865 0.06460357
000050 56 9d 39 3e 8c 46 21 be 31 9d 16 3e 77 58 c4 be
       0.18126425 -0.15749568 0.14708401 -0.38348743
000060 20 66 43 be fd 4d d8 be b9 9a c8 bd ea 4f 5f 3d
       -0.19081926 -0.42247 -0.09795136 0.05451957
000070 f2 b2 7a be 27 b7 37 3d 5f 85 19 bd 5a 9a aa be
       -0.24482325 0.044852402 -0.03748071 -0.33320886
000080 0d 01 24 3e f9 85 ef 3d f1 3b 98 3c e4 95 d8 3d
       0.16016026 0.11695475 0.01858327 0.10575464
000090 77 d1 21 3d 16 a4 7f 3d 0f 8d 17 3e 43 e8 cd bd
       0.039506402 0.062412344 0.14799903 -0.10054066
0000a0 40 76 54 be a3 c3 48 be 8c 29 54 bd f0 1e 93 bd
       -0.20748234 -0.1960588 -0.051797435 -0.07183635
0000b0 31 2e 81 3d 49 88 85 3d 2e bd d6 bb f0 68 8c be
       0.063076384 0.06520135 -0.0065533137 -0.2742381
0000c0 a6 1d 79 be 32 6b 51 be 40 a6 a1 3d 70 9a e3 bd
       -0.24327716 -0.20451048 0.07893038 -0.11113441
0000d0 6b eb 80 bd ec cb 18 be 1f b8 f8 bd d5 cd 9f bd
       -0.062949024 -0.1492154 -0.12144493 -0.07802931
0000e0 3c a8 86 be 21 5f 72 3e 52 30 0a 3e 37 fa 04 be
       -0.26300228 0.23669101 0.13494995 -0.12986074
0000f0 b9 14 1b be 55 5f ef bc 12 49 ff 3d 0a 7c 93 be
       -0.15144624 -0.029220263 0.12465109 -0.28805572
000100 2d 56 11 be 63 da d4 3d 4b 6f 76 be b4 36 c2 bd
       -0.1419303 0.103932165 -0.24065892 -0.0948309
000110 19 73 64 be 04 fa 34 3e 1e 79 81 3d 38 92 a1 be
       -0.22309531 0.17673498 0.063219294 -0.3155687
000120 8a 5a f5 bc 70 a4 41 3d 99 e1 89 bd 71 b3 35 bd
       -0.029950399 0.04727596 -0.067324825 -0.04436058
000130 99 58 98 be d3 eb 81 be 61 6d 98 3d 2d 10 5f be
       -0.29755095 -0.25375232 0.07442737 -0.21783514
000140 b6 49 02 be 0d 01 22 3d c1 b0 a4 3d 72 5f 2e bd
       -0.12723431 0.039551783 0.08041526 -0.042571492
000150 5d 08 22 3d 54 d3 c4 3d 76 53 9b bd 85 5c f3 bd
       0.039558757 0.0961062 -0.07584278 -0.11882881
000160 89 c2 79 3e a0 66 9a 3e 84 ec 08 3e f3 37 01 be
       0.24390616 0.30156422 0.13371474 -0.12618999
000170 7c 90 80 be 89 66 9b be eb b6 3f 3d ce ca 03 bd
       -0.25110233 -0.30351666 0.046805304 -0.03217583

layers.3.bias f4 [8]
000000 19 e8 3b 3d fc 3f a1 bd fc c8 3d 3e 04 db 8b 3e
       0.045875642 -0.07873532 0.185337 0.27315533
000010 2d 2e 31 bd 34 69 67 be 7b 0d ec 3d a0 6d 47 bd
       -0.043256927 -0.22598726 0.11526009 -0.04868853

layers.6.weight f4 [16, 8, 3, 1]
000000 d2 26 57 be 96 7b 4f 3d f6 1b 48 3e dd af 25 be
       -0.21010903 0.05065497 0.19541916 -0.16180368
000010 f4 92 34 bd c8 51 35 3d 37 79 3a be ae 38 43 be
       -0.044085458 0.044267446 -0.18210302 -0.1906459
000020 5d c7 0b 3e 77 8e b4 bd 63 54 d3 3d a5 03 1b 3b
       0.1365027 -0.088162355 0.1031883 0.0023653295
000030 86 f0 0a 3d f5 91 1b be 95 9f 73 bd 8a 3c f3 3d
       0.033920787 -0.15192397 -0.05947836 0.11876781
000040 d3 36 9f 3d 4c bc 71 bd f5 31 17 3c 95 c4 0f 3e
       0.07774129 -0.059017465 0.009228219 0.14039834
000050 d7 68 47 be 00 44 06 3e 80 47 7b bd 54 17 2a bd
       -0.19473587 0.13111877 -0.061347485 -0.041526154
000060 21 0a 97 3d 75 3b 66 be e5 e7 c4 bd e2 1f ce 3d
       0.07374979 -0.22483619 -0.09614543 0.10064675
000070 fc a9 b7 3c 5f bf fa bd fd 76 e4 bd 24 51 ce 3d
       0.022419922 -0.122435324 -0.11155508 0.1007407
000080 0d 58 99 3c 92 f4 9a 3d 60 68 4f be bc 3e 93 bc
       0.018718744 0.07566179 -0.2025466 -0.01797425
000090 26 a6 76 3c ba 57 24 3c e8 fb 1a 3e c5 26 64 3d
       0.015054261 0.010030681 0.15135157 0.055701036
0000a0 62 85 9d 3d 59 50 09 3c b2 c2 70 3d 0b 49 8b bd
       0.076914564 0.008380973 0.058779426 -0.06801041
0000b0 72 7b 5c be 27 38 57 be 5e 2d 6a be ab af 5f be
       -0.21531466 -0.21017514 -0.22868869 -0.21844356
0000c0 33 16 83 3d 0a 7c 7f 3c 3c 74 dd bd 9b 98 40 be
       0.064007185 0.015593538 -0.108131856 -0.18808214
0000d0 78 d6 20 3e 75 eb d9 3d 7a ff bd 3c a7 98 03 3e
       0.15706813 0.10640613 0.02319311 0.12851201
0000e0 6d fb 2c be fe ea 1d be 6e a2 29 be db 7e 35 bd
       -0.16892786 -0.15421674 -0.16565868 -0.044310432
0000f0 6b fd 42 be 9a b4 00 3e 51 29 0f bd c1 ed 97 3d
       -0.19041984 0.12568894 -0.03495151 0.07418395
000100 3e e2 31 be 34 ba 73 bd a5 58 cb bc ce ce ba bd
       -0.17371461 -0.05950375 -0.024822542 -0.09121476
000110 99 fe 1f 3e e5 02 6e 3d 88 1d 2e 3e ad 45 95 bd
       0.15624465 0.05810823 0.17003453 -0.0728868
000120 cb 02 08 be b3 7a 07 be 44 a4 4e 3d b6 aa be 3c
       -0.13282315 -0.132304 0.050449625 0.02327476
000130 2a 1e 1d 3c be 73 a6 bd 6d 3f 25 be fa 65 90 3d
       0.009589711 -0.08127545 -0.16137476 0.070507005
000140 74 11 09 be 13 66 99 3c 2c ac 4a be 17 45 98 3d
       -0.13385564 0.01872543 -0.19792241 0.07435053
000150 a6 31 c2 3d 3a 7c 80 3d c9 12 22 3d 50 50 35 bd
       0.09482126 0.06273694 0.039568696 -0.044266045
000160 3b d2 40 be e4 7b 93 bd 86 13 96 bc 5c 83 e0 bd
       -0.18830197 -0.07201365 -0.018319856 -0.10962555
000170 7f cc dc bc 24 77 e2 bc 0a dc ad be f3 7b a5 be
       -0.02695298 -0.027644701 -0.3395694 -0.32321128
000180 3c 5d 04 be cc 3d 8c 3c 79 42 2f bd 2d 10 94 3c
       -0.12926191 0.01711931 -0.042788003 0.01807412
000190 11 e2 94 bd 34 e9 2d be ed 12 ae 3c 7b 62 01 3e
       -0.07269681 -0.16983491 0.021249259 0.12635224
0001a0 22 ac 0a be df 23 21 3e 8a 4e fb 3c a0 0a 34 3e
       -0.13542226 0.1573634 0.030677099 0.17582178
0001b0 cc 52 67 be 47 8b 6f be 17 2e ac 3c 9c a3 6c be
       -0.22590178 -0.23392974 0.021018071 -0.23109287
0001c0 2a c7 5f be 30 da ad 3d 38 8a b7 3d 4e ab 45 be
       -0.21853319 0.084888816 0.0896191 -0.19303629
0001d0 fe d5 01 3e f5 f7 aa bd 8b 64 d5 3d 3c 1d 07 be
       0.12679288 -0.08348075 0.10419568 -0.13194746
0001e0 c8 1d 5b be 0a 3f 28 be 24 4e de bd 1d 07 6b be
       -0.2139808 -0.16430297 -0.10854748 -0.22951932
0001f0 fb e2 f6 bc c5 f1 d9 bd f7 3f ec bd f0 eb 93 bd
       -0.03013753 -0.10641817 -0.11535638 -0.07222736
000200 5b 1d 18 bd ab 9e 85 be 27 bf 0e 3d 58 7f 5a be
       -0.03713737 -0.26097617 0.034850266 -0.2133764
000210 64 c1 5e 3d 9a 7f f1 3d 17 d8 09 be d9 d4 d9 bc
       0.05438365 0.11791916 -0.13461338 -0.026590751
000220 8f 12 47 3d 1d e9 99 bd 2d e9 71 be 97 b4 bf 3c
       0.048601683 -0.07515166 -0.23624106 0.023401542
000230 a1 76 1d 3d de 07 e5 bd 7d eb 15 be 8a a6 84 bd
       0.03844321 -0.11183141 -0.14640613 -0.06477077
000240 13 da 9a 3d 7a 77 16 be 57 26 b8 bc 31 a1 25 be
       0.075611256 -0.14694014 -0.02247922 -0.16174771
000250 df a1 23 be 94 c9 4f bd be 94 ed bd f0 66 b2 3d
       -0.15979718 -0.05072935 -0.11600636 0.0871104
000260 3e 97 d4 3b 15 95 11 3e 75 62 f2 3d 15 34 45 bc
       0.006487756 0.14217027 0.118351854 -0.012036343
000270 a8 b4 09 be 88 17 0c 3d d7 21 c2 bd 51 80 e6 3d
       -0.13447821 0.03420213 -0.09479111 0.11254943
000280 d6 ba d0 bd af a1 03 3e 52 51 e0 bc 67 62 fc bd
       -0.10191886 0.12854646 -0.027382527 -0.12323456
000290 6a 89 3c be ee 65 ef 3d 17 2e 9a ba 5b 0e 4e 3d
       -0.18411794 0.116893634 -0.0011763003 0.05030666
0002a0 50 a9 2d 3d 81 c2 10 bd 1a 7a 2a be a3 b9 bc bd
       0.042397797 -0.035341743 -0.1664814 -0.09215095
0002b0 2b 46 d0 bd a3 61 14 3d 66 37 aa bd 44 80 f2 bd
       -0.101696335 0.036225926 -0.08311348 -0.11840871
0002c0 d3 fa bd bd 5a cc 9d bc f4 6d b5 3d 8c d3 b3 3d
       -0.092763565 -0.019262481 0.088588625 0.08780584
0002d0 ee d4 7d bd 4b 19 1e bd 85 65 02 3e c3 91 0b 3d
       -0.061970644 -0.03859834 0.12734039 0.034074556
0002e0 9a 32 a1 bd 98 9f 7e 3d 93 d7 5e 3d a8 9e dd bd
       -0.078709796 0.06216392 0.054404806 -0.10821277
0002f0 b2 61 21 3d 71 af 42 bd a8 f8 0e be 2a c2 bb bd
       0.03939981 -0.047530595 -0.13962042 -0.09167893
000300 e7 40 59 3e b5 e9 28 3d 6e e1 34 be b5 8f ea 3d
       0.21216165 0.041238505 -0.1766412 0.11453191
000310 b7 57 23 bd 0e 1a a2 3d 17 f9 eb bc eb ff 50 3d
       -0.039878573 0.07915126 -0.028805299 0.051025312
000320 72 9c 15 3d 2d a6 12 3e 58 9d 4c 3d 2a cc f9 bd
       0.03652615 0.14321204 0.049954742 -0.12197144
000330 fa 43 9e 3d 12 57 25 bd 94 c4 cf 3d 69 d5 e1 bd
       0.07727809 -0.04036624 0.10144916 -0.11027033
000340 3a 30 ee bd 1f 1a 1a 3e 69 55 0b 3d fb 42 9e 3c
       -0.11630292 0.15049027 0.034017 0.019319048
000350 42 d9 92 3c 36 64 f1 bc 29 9d 15 bd e7 9d 51 be
       0.017925862 -0.02946673 -0.036526833 -0.20470391
000360 68 b9 45 3e fc 52 15 3e 78 8f 73 be 49 40 c4 3b
       0.19309008 0.14582437 -0.23785198 0.0059891087
000370 ba 12 02 3e 4d fd 3f 3c 1f 02 99 3c 0a 1e df 3d
       0.12702456 0.011718106 0.01867777 0.10894401
000380 fb 84 3b 3d 58 61 94 bd f8 85 43 be fd 35 05 be
       0.045781117 -0.07245129 -0.19094074 -0.13008876
000390 2d 8d 2b be 9a 82 94 bd b1 4d 5d be 24 6f e9 3d
       -0.16753073 -0.07251473 -0.21611668 0.113981515
0003a0 f3 e9 02 3d ba 0c f2 bd de dd 52 be da 66 ce bc
       0.031961393 -0.11818834 -0.20592448 -0.025195528
0003b0 14 54 0a be fc 07 4a 3d 56 5f 17 3d d3 02 38 3d
       -0.13508636 0.04932402 0.036956154 0.04492457
0003c0 1c 9c d6 bd b9 8b 8c bd f8 26 1e bd 88 10 32 3b
       -0.10478994 -0.068625875 -0.038611382 0.0027170498
0003d0 10 53 01 be d3 86 34 bc 7d 32 1a be 64 a0 65 be
       -0.12629342 -0.011018473 -0.15058322 -0.22424465
0003e0 d9 ca 30 3d 84 22 3a bc b4 ae 1c 3e ea 9f ef 3d
       0.0431622 -0.011360768 0.15301019 0.11700423
0003f0 ba 1f 03 3e 51 66 44 be 31 90 39 be fd f4 16 bc
       0.12805071 -0.19179656 -0.18121411 -0.009213683

layers.6.bias f4 [16]
000000 d9 55 0e be 76 a0 30 bd cb b8 50 3d 1a ad d4 bb
       -0.13899936 -0.043121777 0.050957482 -0.006490362
000010 f6 ec ff 3d d6 fb d1 bd e6 bb a0 3d 31 0c 6d bd
       0.124963686 -0.10253112 0.07848339 -0.057872955
000020 df 15 43 3e 6c de fa 3d 70 12 8e be ca 75 1b 3d
       0.19051312 0.12249455 -0.27748442 0.03795413
000030 a1 13 fb 3d cc b5 a7 3d 78 15 2a be 32 9d 65 3e
       0.12259603 0.08188972 -0.16609752 0.22423247

layers.10.weight f4 [64, 3024]
000000 a0 45 2d bb 06 fa 7a 3c e0 6a 92 ba 3a a2 5a bc
       -0.0026439205 0.015318399 -0.0011170767 -0.013344342
000010 0a 55 29 bc 60 d6 8c bb ae a2 ae bb 00 15 cf ba
       -0.010335216 -0.0042980164 -0.0053294515 -0.0015799105
000020 c0 e5 ef bb 6c 12 0e bc 30 64 a6 3b c4 4e b2 3b
       -0.0073210895 -0.008671384 0.0050778612 0.0054415185
000030 6c 39 fa bb 48 03 e1 3b 0e ee eb bb 80 db 5e 3a
       -0.0076362398 0.0068668462 -0.007200009 0.0008501336
000040 d8 b1 75 bb c0 55 f1 39 f2 14 73 3c 8c 05 f1 bb
       -0.0037490036 0.0004603099 0.014836537 -0.0073553976
000050 37 8a 86 3c e0 ae 59 ba 12 80 4a bc cc e4 d0 3b
       0.016423328 -0.00083039515 -0.012359636 0.006374931
000060 30 1f 06 3b 39 26 92 3c 5e 2f 64 3c 7f 66 8a bc
       0.0020465367 0.017840492 0.013927309 -0.016894577
000070 c9 10 80 3c 81 92 88 3c 2a 48 1b 3c 80 36 73 ba
       0.015633004 0.016671421 0.0094776545 -0.00092778355
000080 17 66 90 3c e0 bf 99 3a 20 50 8b 3a c0 21 5f ba
       0.017626805 0.0011730157 0.0010628738 -0.0008511804
000090 1e 79 20 3c e0 9c ce ba e0 8b e8 3a 12 7d e8 bb
       0.009794502 -0.0015763305 0.0017741881 -0.0070949877
0000a0 90 7b 17 3b 3e f6 18 3c 8a 97 1e 3c 3b b3 8b 3c
       0.002311442 0.009336052 0.009679684 0.017053237
0000b0 10 38 d6 3a b0 12 8a bc cb 92 35 bc 39 34 0f bc
       0.0016343612 -0.016854614 -0.011082361 -0.008740478
0000c0 b0 aa ba ba bf 58 78 bc fe 74 6e 3c 22 92 79 3c
       -0.0014241543 -0.0151578775 0.01455426 0.015232595
0000d0 a2 56 57 bc 72 d7 9a bb 12 e6 35 bc 27 cb 22 bc
       -0.0131432135 -0.00472539 -0.011102216 -0.009936131
0000e0 d7 ad 88 3c 6a 18 0e bc 2c 6f 06 3c ea 4e 1f 3c
       0.016684456 -0.008672813 0.008205216 0.009723404
0000f0 f0 ee 1e 3b 64 ed 3a bc f0 c1 aa ba 0c 93 6a bb
       0.0024251305 -0.011409137 -0.0013027769 -0.0035793213
000100 cf 6a 94 3c 5e ae 4d 3c a8 95 07 3b e8 e1 1e 3c
       0.018117337 0.012553779 0.0020688567 0.009697415
000110 9c 57 69 bc e0 3c 2b 3c 1c e6 0b 3c 29 28 93 3c
       -0.014242079 0.010451525 0.008538749 0.017963486
000120 86 2d a9 bb 0f be 45 bc 56 d7 77 3c 65 56 91 3c
       -0.0051628975 -0.012069239 0.015127024 0.017741391
000130 a0 5f bb 3a b4 c9 82 3b fb d2 90 3c 54 7d 7c bc
       0.0014295466 0.00399133 0.017678728 -0.01541074
000140 b0 74 b6 bb 30 75 5b bc 8e 3d 0e 3c 1c f7 46 3c
       -0.0055681095 -0.013394639 0.008681668 0.012143876
000150 30 4f 80 bc 78 1f 40 bb 6f 12 87 bc ea db 5b 3c
       -0.01566276 -0.0029315632 -0.016488282 0.013419131
000160 66 bd 6d 3c 4c 49 c2 3b 00 48 12 b9 80 7d 4b b9
       0.014510488 0.005929148 -0.00013950467 -0.00019406341
000170 22 46 47 3c 34 29 cd 3b 9c 85 63 bc 00 ad 6d 3b
       0.012162717 0.0062610153 -0.013886835 0.0036266446
000180 fe be 6d 3c b8 c8 41 3c d2 90 52 bc c0 d2 68 bc
       0.014510868 0.01182764 -0.012851911 -0.014210403
000190 b6 d0 3a 3c 1e 29 71 3c 86 d4 15 bc 3b 5b 3a bc
       0.0114023 0.014719276 -0.009144908 -0.01137429
0001a0 cc 22 8a 3b de af 16 bc fe e1 19 3c 1c ef df 3b
       0.004215574 -0.009197203 0.00939226 0.006833924
0001b0 e2 52 6b 3c 0c 9f 6f bb 0e 67 af bb 0e 0e 69 bc
       0.0143630225 -0.0036563305 -0.0053528612 -0.014224542
0001c0 99 93 84 3c 20 86 18 3c d0 de 04 3b e8 ad 35 bc
       0.016183661 0.009309322 0.0020274408 -0.011088826
0001d0 a6 d2 78 3c 55 a2 88 3c 30 89 93 bb b4 6b 2c bc
       0.015186941 0.016678968 -0.004502438 -0.010523725
0001e0 fc 5e 01 bc c2 32 43 3c ba a4 80 bc be db 06 bc
       -0.007896181 0.011913957 -0.015703548 -0.008231102
0001f0 40 b3 fc b9 3e 8a 41 3c 90 97 20 bb 9c 63 5b bc
       -0.00048198737 0.011812745 -0.00245044 -0.013390448
000200 3e a3 49 bc 20 7b c1 3b 80 3a 2a b9 80 ae 93 bb
       -0.012306986 0.00590457 -0.00016234256 -0.004506886
000210 8e 49 3b 3c 00 b9 e2 3b d0 a8 a1 3a 6e 28 af bb
       0.011431111 0.0069190264 0.0012333635 -0.0053453958
000220 2e db 43 bc a1 f2 92 bc e8 6b 0f 3c 40 53 85 39
       -0.011954112 -0.01793796 0.008753754 0.00025429763
000230 b6 1d 76 3c 1c 7d d5 bb 8b be 8f bc a6 59 23 bc
       0.015021732 -0.0065151583 -0.017546913 -0.009970104
000240 2e 68 4b bc 44 5c 6d bb 40 58 83 bc 60 1b f0 3b
       -0.012414975 -0.0036218325 -0.016033292 0.007327482
000250 62 9c 56 3c 40 2c 08 3a a3 4a 94 bc 58 35 cf 3b
       0.013098808 0.0005194582 -0.018101996 0.0063234977
000260 48 6e 7c bb 60 c8 9b 3b d6 61 b2 bb fb 44 63 bc
       -0.0038517881 0.004754111 -0.005443792 -0.013871427
000270 6c fa 70 bc 94 2d b0 3b cc 34 bc bb db c7 85 3c
       -0.014708143 0.005376527 -0.0057435986 0.01633065
000280 18 1f 1a bb 10 0e 1c 3b b4 38 44 3c 83 24 8b 3c
       -0.0023517068 0.0023812093 0.01197641 0.016985184
000290 bc 8e d8 3b 16 ef 7a 3c fe 0a 6f 3c ed 9a 93 3c
       0.006608812 0.015315792 0.014590023 0.01801821
0002a0 4c 4e 78 bc 34 23 f2 3b 8c 6f 08 bc f2 fc 56 bc
       -0.015155386 0.0073894504 -0.008327376 -0.01312183
0002b0 00 46 09 3b 36 28 5a 3c 5b fc 80 3c 40 21 92 b9
       0.0020946264 0.013315251 0.015745332 -0.00027872063
0002c0 18 ff f6 3b a0 3e ac ba 28 c2 2d 3b 14 1f 96 bb
       0.0075377338 -0.0013141222 0.0026513431 -0.0045813415
0002d0 3b 9b 09 bc 58 87 3b bc 68 12 88 bc f8 99 0b bb
       -0.008398826 -0.011445843 -0.01661034 -0.002130149
0002e0 43 19 8c 3c 80 02 d8 3b e0 08 77 3a 40 fb 7c bc
       0.01710189 0.006592095 0.0009423625 -0.015440762
0002f0 90 fb 09 bb 30 63 a3 bc 42 a1 0d b8 f1 e4 1c bc
       -0.0021054484 -0.019944757 -3.3767203e-05 -0.009576068
000300 5f 17 3d 3c 02 57 0c 3c d7 75 97 bc 91 23 ef 3b
       0.011541217 0.008565666 -0.018488808 0.007297941
000310 82 9e f9 bb 3b ed a9 bc a1 d3 16 bc 5b 01 3b ba
       -0.0076177726 -0.020743003 -0.00920573 -0.0007133686
000320 fa 2a e7 3b a7 97 f8 ba fc b4 31 3c 07 84 9d bc
       0.0070546838 -0.0018966094 0.010846373 -0.019227995
000330 81 2c 32 bc d8 f9 ab bc 7d e4 a3 bb 77 9c 82 bc
       -0.010874868 -0.020993158 -0.005001603 -0.015943749
000340 5f 04 f8 3b 59 f9 03 3c 19 44 2c bc 97 fa 63 3c
       0.0075688804 0.008055055 -0.010514283 0.013914726
000350 7c 00 7f bc 98 ff 88 bc f2 cf d4 bb 93 0a 87 3a
       -0.01556408 -0.01672344 -0.0064945156 0.0010302834
000360 59 8b 5b 3c 50 c0 7a bc 13 14 39 3c b8 4a 8f 3b
       0.013399922 -0.01530464 0.01129629 0.004372921
000370 40 df 41 bc db 83 73 bc 56 e3 4a 3b 56 bc 8f bb
       -0.011833012 -0.01486298 0.0030958257 -0.004386465
000380 ee 0b 3e 3c 10 21 48 ba b7 80 a1 bc 34 b0 0d bc
       0.011599524 -0.0007634321 -0.019714696 -0.008647967
000390 2c 98 23 bc 12 4d 5b bc 61 8e b0 bb 1f b0 9b 3b
       -0.009985011 -0.013385074 -0.0053880666 0.00475122
0003a0 93 e2 69 bc 31 9f cf bb 97 35 31 bc d4 79 0a 3c
       -0.014275211 -0.0063361158 -0.0108159995 0.008451898
0003b0 04 7f 35 3c e3 6a 45 3c c1 7f 73 3c 8b a5 3e bc
       0.011077646 0.01204941 0.014862002 -0.011636148
0003c0 42 7b 80 bc b7 90 25 3c 7a 12 a1 3b 4c ee 60 38
       -0.015683774 0.0101053035 0.0049155327 5.3627693e-05
0003d0 62 f2 56 bc 26 ed 8e bc d6 10 13 bc 4e bd 45 3c
       -0.013119312 -0.017447066 -0.008976182 0.01206906
0003e0 a4 15 47 bc 04 61 6e bc b1 f2 76 3b 9f a8 4c 3c
       -0.012151156 -0.0145494975 0.0037681276 0.012491374
0003f0 c5 59 d8 ba be 7f f4 3a 28 e6 10 3c 20 6c 07 bc
       -0.0016506246 0.0018653793 0.008843936 -0.008265525

layers.10.bias f4 [64]
000000 47 36 25 bc ee 9c f9 bc 96 ee b1 bc 17 e5 0d bd
       -0.0100837415 -0.030470338 -0.021720212 -0.034642305
000010 27 eb ae bc 78 3f c7 bc 3a d4 a6 bc f9 ac 0a bd
       -0.021352364 -0.024322256 -0.02036487 -0.033856366
000020 3f 99 d8 38 c0 f9 c6 ba 26 5c 32 bc 12 c3 b9 3d
       0.00010328227 -0.0015180632 -0.010886228 0.0907041
000030 48 9e 8e bc 21 09 ba bc 5f 20 8a bc c7 c9 b5 bc
       -0.017409459 -0.022709431 -0.016861139 -0.022190941
000040 39 44 8a 3b 75 ed e7 bc c1 4b 11 3e ae 22 0f bc
       0.0042195586 -0.02831147 0.14189054 -0.008736296
000050 38 8a fb bb b5 eb a3 bb 3c 8c 21 bc ba 6a 16 bd
       -0.007676389 -0.0050024637 -0.009860095 -0.036722876
000060 23 13 d2 bc 97 93 cd bc 1f a5 68 bc a4 d8 4b ba
       -0.02564389 -0.02509479 -0.014199524 -0.00077761174
000070 ad 05 79 bc 2e 2a f4 bb ea fe 02 bc 24 78 dc bc
       -0.015199107 -0.0074513173 -0.007995347 -0.026912756
000080 58 f2 da 3b c5 09 35 3a ef 40 6c 3c b2 73 c0 bc
       0.0066817217 0.0006906058 0.014419778 -0.023492668
000090 6f 5d 5b 3c 3e d6 c0 bc 90 1f 5c bb ef 3b e2 3d
       0.0133889755 -0.023539659 -0.0033588149 0.11046588
0000a0 8b a7 fc bc af f8 e9 3b 6b 6c 59 bc 93 ea 28 bc
       -0.03084161 0.007140241 -0.013270478 -0.010309833
0000b0 69 15 ff bb d1 ea bf ba 8d ef e9 bc 49 4e 5b 3d
       -0.0077845347 -0.0014642124 -0.02855661 0.053541455
0000c0 77 8b 28 bc 21 d4 dd bb 48 30 cb bc 27 31 61 bc
       -0.010287157 -0.0067696725 -0.024803296 -0.013744629
0000d0 f5 12 ac bc 1a f1 1d 3c c5 fd bd bc 6e 83 e7 bc
       -0.021005133 0.009640003 -0.023192296 -0.028260913
0000e0 82 d6 e3 ba ad 35 dd bb 9f 29 54 3c 58 8b 8c bc
       -0.0017382654 -0.0067507834 0.012949376 -0.017156288
0000f0 fb c7 98 bc 46 b9 45 bc fb c0 82 bc 25 23 27 bc
       -0.018650046 -0.012068098 -0.01596116 -0.01020125

layers.12.weight f4 [5, 64]
000000 2e 4a 02 3e 9a 89 b8 bd ef c8 08 bc 1a 26 ce bd
       0.1272361 -0.090106204 -0.008348688 -0.10065861
000010 b7 4f 3d bd 55 87 0b 3d 88 83 a2 3c c9 28 a5 3d
       -0.0462186 0.03406461 0.01983811 0.0806442
000020 e9 6f 13 3d 80 1e 8c 3d 24 2b 63 3d fe a8 e5 3c
       0.035995398 0.06841755 0.055461064 0.028034683
000030 20 a1 f5 bc 35 25 88 bd 58 a0 f9 3c 64 31 0a 3d
       -0.029984057 -0.06647722 0.030471966 0.03373851
000040 de 18 db 3c 70 e8 d5 3c 44 61 e2 3d 81 d8 f2 bc
       0.026745256 0.026111811 0.11053708 -0.029644253
000050 e3 23 dd bd 34 f7 32 bd 9c 92 5d bd b0 17 f9 3b
       -0.107978605 -0.043692783 -0.054094896 0.0076017007
000060 4a 68 8d 3c 1a 72 a4 bc a8 78 ae 3c fb bf 2b bd
       0.017261643 -0.02007394 0.021297768 -0.041931134
000070 13 f3 c6 bc 26 ea 74 bd 90 fe 2e bc 53 d6 1d 3c
       -0.024285829 -0.059793614 -0.01068081 0.009633618
000080 e1 02 b4 bc 72 45 a5 3d 9d 73 cf bd 74 66 0f bd
       -0.021974029 0.08069886 -0.10129473 -0.035009816
000090 7f b9 19 bd d4 0f ec bc b2 98 ae bd c7 35 81 3d
       -0.03753042 -0.028816141 -0.08525218 0.06309085
0000a0 03 d5 6f bd be d9 66 3d 4a 96 a3 bd db e7 0c 3d
       -0.058552753 0.05636 -0.0798765 0.034400802
0000b0 21 b3 a9 bd 1f fa bd 3c 16 39 f4 3d 39 0b b8 3d
       -0.08286119 0.023190556 0.11924951 0.089865156
0000c0 b2 e9 1a 3d 9e e0 d6 bd ea 49 cc bd e8 80 87 3c
       0.037820525 -0.10492061 -0.099750355 0.01654096
0000d0 f5 5a f7 bd d1 1d 98 3d ea 52 92 bd 00 e3 ef 3a
       -0.120778956 0.07427562 -0.07144721 0.0018301904
0000e0 f3 57 63 bd 51 73 20 bc 17 f3 21 bd f9 a4 c7 bc
       -0.055503797 -0.009793119 -0.03953847 -0.024370657
0000f0 af d9 9a bc c6 59 d3 bd 31 f1 e6 bd d0 fe be bd
       -0.018902628 -0.10319857 -0.11276472 -0.093259454
000100 ac a6 29 bd b2 a7 03 3d b7 65 8b bd cc e4 f8 3d
       -0.041418716 0.03214235 -0.0680651 0.121530145
000110 f4 c0 55 3d 31 fd 61 bd c6 bd 42 3d fe 5d 4b 3d
       0.052185968 -0.055173103 0.047544263 0.049650185
000120 23 e3 1e 3d b3 c4 ba bd 30 76 7d 3c 41 77 ec 3d
       0.038790833 -0.09119549 0.015470073 0.115461834
000130 da ed 28 bd d3 d3 78 3d 15 68 78 bd 18 b1 f3 3d
       -0.041242458 0.060748886 -0.060646135 0.11899012
000140 47 47 0c 3d 36 89 cf bd 7a c1 90 3d 35 1c 9d bd
       0.034247663 -0.10133593 0.07068153 -0.07671396
000150 54 cb 98 3d 67 69 b0 bd 2c 59 50 bd 96 fe e5 bc
       0.07460657 -0.08613854 -0.05086629 -0.028075498
000160 4e 87 10 bd b1 ae 7e 3d ee 53 85 bc 20 c6 e8 bb
       -0.035285287 0.062178317 -0.016275372 -0.0071036965
000170 4b b8 d8 3d e2 f5 83 bd 80 80 24 3b 68 32 b9 3c
       0.10582026 -0.06443383 0.0025101006 0.022607043
000180 ac 91 87 3d bd 69 16 3c 10 83 dd bd 19 b1 e1 3d
       0.066195816 0.009180483 -0.10816014 0.11020107
000190 e0 a6 f1 bb 82 6a ba bd c1 82 02 3d 64 25 d8 3d
       -0.0073746294 -0.09102346 0.031862978 0.10554007
0001a0 a8 7e ad bc 31 82 27 bb 36 38 97 bd cd 31 52 bc
       -0.021178558 -0.0025559778 -0.07383768 -0.012829256
0001b0 c0 41 48 bc ac 58 05 3d 6e 19 92 bb 11 50 a4 bb
       -0.012222707 0.032555267 -0.004458598 -0.0050144275
0001c0 d2 49 bf 3d ac a5 17 bd 38 ef 08 3d fb 24 43 3d
       0.09340252 -0.03702323 0.03343126 0.04764269
0001d0 29 e5 e9 bc 90 5b 86 3c 50 80 ae bd 50 0c 94 bd
       -0.028551655 0.016401082 -0.085205674 -0.07228911
0001e0 b0 fd 39 3c 57 48 78 bd 08 c4 d5 3c ec 65 31 bd
       0.011351988 -0.060615864 0.026094452 -0.04331009
0001f0 d6 a5 cf bd 60 76 59 bd 00 dc f3 bc 78 4c f9 bc
       -0.101390526 -0.053091407 -0.02976799 -0.030431971
000200 60 e7 b1 3b 71 de c6 bd 83 44 ca bd 02 6b fa bd
       0.0054291934 -0.09710396 -0.09876349 -0.12227441
000210 bc 14 d2 3c 70 3c 88 3d 64 17 e6 bc 17 e6 cd 3b
       0.025644653 0.066521525 -0.028087325 0.0062835324
000220 9e 25 07 bb 90 90 71 3c 40 d6 9d 3b ae 3b ac 3d
       -0.0020621787 0.014743939 0.0048168004 0.084098205
000230 c3 41 10 bb 82 db a2 bd aa f2 c5 3d d3 ab fa bc
       -0.0022011853 -0.07952024 0.09665425 -0.03059951
000240 58 17 8e 3c e0 a3 2d bc 09 12 c0 3d d7 24 c5 bc
       0.017345116 -0.010598153 0.0937844 -0.024065418
000250 a0 cb 82 bb 40 1e e2 3c 2a 62 22 bd f2 d2 34 3d
       -0.003991559 0.027602315 -0.039644398 0.044146486
000260 08 d6 1a b9 db fd b0 bc b9 29 b8 3d 00 2a 6e 3a
       -0.00014766317 -0.021605423 0.08992333 0.0009085238
000270 5d ba b3 bd b8 a5 ec 3a 68 61 68 bd 66 34 a3 bd
       -0.0877578 0.0018054759 -0.05673352 -0.079689786
000280 ce 15 fa 3d 60 1f 7d bd 60 fb d2 3c 32 9f eb bc
       0.1221119 -0.0617975 0.02575463 -0.028762434
000290 b2 54 f6 bd 12 6f 82 bc 00 76 31 bd 8b 50 a6 3d
       -0.12027873 -0.015922103 -0.043325424 0.08120831
0002a0 d2 a4 98 bd a2 7a e3 bd 2e 29 c9 bd e5 bb de 3d
       -0.07453312 -0.11107375 -0.098223075 0.10875682
0002b0 45 0c 31 bc fb 8b a5 bc 23 a0 63 bd 41 a2 fa 3c
       -0.010806148 -0.02020835 -0.05557264 0.030594947
0002c0 b2 b9 2b 3d 89 5c b3 bd c8 a5 eb bc 1f 56 99 bd
       0.04192514 -0.08757884 -0.028765574 -0.074871294
0002d0 a7 f2 c0 bd 42 6c 9a 3d 8c 59 e1 3c c8 97 c3 3c
       -0.09421282 0.0754018 0.02750852 0.023876086
0002e0 30 0f 6f bc 40 d9 38 3b 60 9e 1c 3d 80 a8 9f bd
       -0.014591023 0.0028205663 0.038236976 -0.07795811
0002f0 c4 25 da bd c4 45 8e bd 96 d6 a8 3d 40 7c 63 3b
       -0.106517345 -0.069469005 0.08244054 0.003471151
000300 34 25 52 bd 06 72 85 3d 7d 95 b0 3c af 6b c0 3d
       -0.05130501 0.06515889 0.021555657 0.09395539
000310 91 1f 8e 3c 97 32 f5 bd e4 7d 57 bd 7f b2 c9 bc
       0.017349036 -0.1197254 -0.052610293 -0.024621246
000320 86 54 3e 3d d8 2b a7 3c 28 58 1f bd c6 c2 58 3d
       0.046467327 0.020406649 -0.03890243 0.052920125
000330 34 c9 c4 bd 27 9a 5d bd b8 cf 8e bd d5 45 cc bd
       -0.09608689 -0.05410209 -0.06973213 -0.09974257
000340 4b 4b ea 3c 46 86 fb bd 49 1c ba 3d c5 1e 41 bd
       0.028600356 -0.1228147 0.09087426 -0.047148485
000350 73 a5 87 3c 64 88 2d bd 24 f2 cc 3d 2b 08 ae 3d
       0.016558385 -0.0423664 0.10007122 0.08497652
000360 b9 8d 31 3d 8e ac 07 3d 3c c7 f0 3d 8c 4a 08 3d
       0.043348048 0.033123545 0.11756751 0.03327422
000370 82 82 3f 3d 67 11 cf 3d 74 22 e9 bd d4 04 cd 3d
       0.04675532 0.10110741 -0.113835245 0.100106865
000380 d0 a0 0b 3c dd 77 ad bd 3a e3 de 3d 06 3a e2 3d
       0.008522227 -0.08470128 0.10883184 0.11046223
000390 80 13 02 bd 80 91 f6 bd 62 02 b1 bd d4 ba c4 3c
       -0.031756878 -0.12039471 -0.086430326 0.024014868
0003a0 f8 65 4b 3d bf 97 70 bd c6 90 db 3d ef 69 c3 bd
       0.04965779 -0.058738466 0.10720973 -0.095416896
0003b0 ec da 7f 3d c6 e3 a5 bd 78 20 de 3d ba 4f 06 3e
       0.06246464 -0.08100085 0.10846037 0.13116351
0003c0 65 0d b5 3c da 3e b0 bd 54 0a 14 bd 8f 62 85 bd
       0.022101114 -0.08605738 -0.036142662 -0.06512939
0003d0 2e 68 65 3d 10 16 a3 3c 27 b5 36 bd 7e 7e d3 bd
       0.056007557 0.019907981 -0.044606354 -0.10326861
0003e0 c6 13 cc bd f0 c5 a2 3d 40 96 13 3d 00 a4 f0 bd
       -0.09964709 0.0794791 0.03603196 -0.117500305
0003f0 5c 93 c8 3d 1f f4 22 bb fc 65 93 bd 30 08 0d bc
       0.097937316 -0.0024864746 -0.07197186 -0.008607909

layers.12.bias f4 [5]
000000 ba bf 63 3e 48 f1 cd 3d 58 48 b9 3d 44 26 69 3e
       0.22241107 0.10055786 0.090470016 0.22768503
000010 af 38 95 3d
       0.07286202
