lunar_lander.pt (torch, 141633 bytes, 8 tensors)

layers.0.weight f4 [128, 8]
-0.38697645 -0.3960942 -0.26282808 0.12333428 0.3209822 0.21774805 0.16782475 -0.29312325
0.2069543 -0.5112009 -0.18072066 -0.08866124 -0.054094996 0.18647483 -0.1364396 0.3180371
0.31712714 -0.58439195 0.17589834 -0.24440512 -0.079275385 0.18671218 0.0052062226 -0.08321454
0.27262846 -0.0005766201 -0.199593 -0.34485587 -0.08131292 -0.2747124 0.16189823 0.010824418
-0.14432295 0.08238657 0.2147754 -0.36419898 -0.16714694 -0.10173249 0.16785815 -0.37926704
-0.042887103 0.46552143 -0.1821541 -0.263287 -0.062438916 0.0074997684 -0.30739367 -0.2865266
0.125555 0.1216995 0.34322435 0.1661238 0.032634348 -0.13679925 -0.26626444 0.17325598
-0.26658595 -0.6378341 0.11242569 -0.35078833 0.036068324 -0.016806992 -0.07567017 0.28505623
-0.18877546 0.17904961 0.20912105 -0.3202623 -0.14216644 -0.18620288 -0.15543053 0.19214846
-0.3062402 0.20780191 -0.15038036 0.17235036 -0.2041742 0.20043816 -0.048547823 0.21995553
-0.022170043 0.12788358 0.1603087 -0.07982568 -0.39940447 -0.025523823 0.3298163 0.2272204
0.06934138 0.117090754 0.54301137 0.29146108 -0.28342363 -0.24717458 -0.028278068 -0.07191585
-0.051325437 0.45464334 -0.00083531544 0.24674694 -0.3136436 0.18856056 0.1928408 -0.113699764
-0.022108605 -0.034975808 0.44214895 0.18734922 0.46431136 -0.3207499 0.29899153 -0.1477699
0.08601379 0.26611263 0.08416502 -0.24024276 -0.14218442 -0.27376634 0.16134053 0.19446447
0.1947787 -0.027844952 0.09596622 0.09662743 0.23914514 0.35366127 -0.051601056 -0.07384126
-0.041384265 0.20349896 0.291158 0.35217807 -0.18684037 0.0028488692 0.30693927 0.2798556
-0.12448285 -0.33085164 -0.096878804 -0.17587245 -0.16715479 0.29724982 0.10921075 -0.082200065
-0.06899911 0.0061236965 0.26426765 -0.23461892 0.24959262 -0.14534938 -0.3642662 -0.22834386
-0.1667023 0.47115704 0.3477509 -0.17197418 0.23561466 0.06006597 -0.09167018 0.084263444
0.08621751 -0.5691957 -0.14315245 -0.32445732 0.17902763 0.20346624 0.18257795 0.026331408
-0.03413034 0.40647417 -0.09388609 -0.025971284 -0.12245989 0.123905934 -0.33341777 0.31709665
-0.051442306 0.22334109 0.171747 -0.1493389 0.0131682055 -0.12389817 0.019882314 -0.3517689
0.23645362 -0.31758714 0.12910493 -0.146964 0.13842914 -0.36404517 -0.12005464 -0.26593357
0.25770545 -0.40997168 0.38547683 0.02277039 -0.16273619 0.13015315 -0.022825496 -0.25160128
0.100685775 0.03015577 -0.18758574 1.2258366 -0.11958208 -0.06800092 0.32690606 -0.25629812
-0.07082242 -0.4494217 0.009257628 0.23982468 0.14360799 0.3296477 0.11473003 0.09483838
-0.20368235 -0.08384253 0.00935621 -0.062639475 0.26661295 0.29812017 0.000978485 -0.0950753
0.062453583 -0.11599705 -0.47412214 -0.03589373 0.41865143 0.2304876 0.2399709 -0.13752884
0.38403597 -0.59509367 0.25887385 -0.24696258 0.14920531 -0.382363 0.13223751 -0.077597074
-0.34300637 0.104116954 0.17796262 0.24463965 0.46025282 0.062018007 -0.2720981 -0.0007848464
0.28885686 0.02086974 0.08898318 -0.02691651 -0.23525982 -0.45721194 0.2394334 0.3198408
00000000: c721 c6be dccc cabe 6791 86be af96 fc3d
00000010: c757 a43e 58f9 5e3e 40da 2b3e 4014 96be
00000020: d4eb 533e 10de 02bf d60e 39be 0694 b5bd
00000030: b792 5dbd 42f3 3e3e d3b6 0bbe c2d5 a23e
00000040: 7d5e a23e b69a 15bf b21e 343e 5645 7abe
00000050: 225b a2bd 7a31 3f3e f698 aa3b 626c aabd
00000060: f595 8b3e 5228 17ba 1b62 4cbe f390 b0be
00000070: 6387 a6bd 1ba7 8cbe a6c8 253e e658 313c
00000080: 65c9 13be 4aba a83d 15ee 5b3e 4a78 babe
00000090: 9128 2bbe 2059 d0bd 02e3 2b3e 4a2f c2be
000000a0: 63aa 2fbd d358 ee3e 9b86 3abe 8ecd 86be
000000b0: f3bf 7fbd 9ec0 f53b b462 9dbe 9db3 92be
000000c0: 7d91 003e 963d f93d 1abb af3e 5c1c 2a3e
000000d0: 98ab 053d 1a15 0cbe d053 88be 046a 313e
000000e0: f47d 88be 1849 23bf 713f e63d 879a b3be
000000f0: 61bc 133d d1ae 89bc f6f8 9abd e4f2 913e
00000100: 5b4e 41be c858 373e d423 563e 6cf9 a3be
00000110: 1494 11be f8ab 3ebe 2e29 1fbe 91c2 443e
00000120: 84cb 9cbe 06ca 543e 4ffd 19be 9d7c 303e
00000130: 0b13 51be a93f 4d3e 15da 46bd 063c 613e
00000140: f39d b5bc eaf3 023e f727 243e a57b a3bd
00000150: be7e ccbe 5617 d1bc afdd a83e 77ac 683e
00000160: da02 8e3d 47cd ef3d cb02 0b3f 633a 953e
00000170: e71c 91be 551b 7dbe 68a7 e7bc 9e48 93bd
00000180: 9f3a 52bd 03c7 e83e 12f9 5aba 3bab 7c3e
00000190: e595 a0be 0516 413e 0f78 453e 6cdb e8bd
000001a0: 1b1d b5bc cb42 0fbd 5961 e23e 79d8 3f3e
000001b0: 38ba ed3e 5539 a4be 6b15 993e fe50 17be
000001c0: ff27 b03d ea3f 883e b65e ac3d 3302 76be
000001d0: cb98 11be 1a2b 8cbe 7436 253e b221 473e
000001e0: 1174 473e 191b e4bc f089 c43d 9ae4 c53d
000001f0: 77e2 743e 1713 b53e a15b 53bd 163a 97bd
00000200: 8c82 29bd 0862 503e a912 953e af50 b43e
00000210: 1553 3fbe 18b4 3a3b 2527 9d3e 3c49 8f3e
00000220: ddf0 febd 6365 a9be 6568 c6bd e817 34be
00000230: a02a 2bbe 2131 983e e3a9 df3d 8258 a8bd
00000240: 684f 8dbd 4aa9 c83b 174e 873e f13f 70be
00000250: 3595 7f3e 78d6 14be 1981 babe f9d2 69be
00000260: 02b4 2abe 7f3b f13e 680c b23e 001a 30be
00000270: f844 713e bc07 763d 93bd bbbd 5092 ac3d
00000280: ce92 b03d cfb6 11bf 8e96 12be 451f a6be
00000290: 0553 373e 7459 503e b7f5 3a3e f7b4 d73c
000002a0: 41cc 0bbd 621d d03e 5a47 c0bd bbc1 d4bc
000002b0: 40cc fabd 65c2 fd3d bcb5 aabe 7e5a a23e
000002c0: 2bb5 52bd 87b3 643e 72de 2f3e 4cec 18be
000002d0: 75bf 573c 53be fdbd 3ce0 a23c 0e1b b4be
000002e0: e620 723e c89a a2be 1534 043e bb7d 16be
000002f0: 5ec0 0d3e 2164 babe 35df f5bd 7228 88be
00000300: f8f1 833e cfe7 d1be 385d c53e f888 ba3c
00000310: 51a4 26be de46 053e 89fc babc e2d1 80be
00000320: 5834 ce3d 3c09 f73c 7a16 40be 37e8 9c3f
00000330: 73e7 f4bd 1144 8bbd 3b60 a73e 8239 83be
00000340: 580b 91bd 9a1a e6be 4ead 173c 9a94 753e
00000350: f90d 133e 95c7 a83e 94f7 ea3d a03a c23d
00000360: 1b92 50be a2b5 abbd ca4a 193c 2049 80bd
00000370: 7e81 883e 35a3 983e 8240 803a d7b6 c2bd
00000380: 54cf 7f3d dd8f edbd 23c0 f2be 4e05 13bd
00000390: 7b59 d63e f104 6c3e eeba 753e 5cd4 0cbe
000003a0: 5da0 c43e 0f58 18bf 1d8b 843e c2e3 7cbe
000003b0: 47c9 183e 15c5 c3be 4569 073e 37eb 9ebd
000003c0: 889e afbe 453b d53d d53b 363e d182 7a3e
000003d0: 42a6 eb3e 9806 7e3d 7150 8bbe 26be 4dba
000003e0: 0ce5 933e 04f7 aa3c d03c b63d 0380 dcbc
000003f0: f3e7 70be af17 eabe 072e 753e 2cc2 a33e

layers.0.bias f4 [128]
0.20191182 0.10481784 0.13265009 0.11026173 0.028241172 0.019532204 0.05081646 0.19335069
0.110860094 0.1035125 -8.646844e-05 0.08385976 0.107057534 0.03013407 0.0810602 0.09744084
0.10348603 0.026512925 -0.021564445 0.013345025 0.15139347 0.017108701 0.009671129 0.012279747
-0.0016660361 0.010443919 0.060637522 0.119605735 0.015400547 0.041690942 -0.06867375 0.07895173
0.031076353 0.03217261 0.046860892 0.18105419 0.09047711 0.11270733 0.17806561 0.081645325
0.08673494 0.085906796 0.04480525 0.09501796 0.1658833 0.036606286 -0.06571109 0.19111364
0.103356965 0.026976217 0.13278261 -0.057346467 0.097684935 0.20125626 0.068742156 0.11759533
0.016102582 0.120146096 0.06032485 0.07748937 0.023827396 0.13274428 -0.071237065 0.1441694
0.07651653 0.15674601 0.12458593 0.054591995 0.1095963 0.12960708 0.12684678 0.19254492
0.10300465 0.07742534 -0.010786764 0.03156501 0.08854037 -0.11855986 0.023713633 0.027462045
0.06742963 0.13726012 0.038025137 0.11709573 0.074447334 0.05142376 0.15082967 0.09509885
0.2002451 0.068636924 0.09183962 0.08770004 0.04484717 0.12298363 -0.04944804 0.11682944
-0.0122950915 0.12113099 0.13184582 0.10937757 -0.014379409 0.04785267 0.10092948 0.011525992
-0.031904727 0.031827055 0.17116413 -0.0054274136 0.00076246075 0.09295624 0.08226213 0.14253923
0.16913569 0.018784218 0.1085952 0.102954336 0.06361794 0.010692149 0.08521478 -0.020841252
0.120900325 0.068917215 0.13567522 0.068068415 -0.005467369 0.0030921076 0.18368585 0.049331024
00000000: f9c1 4e3e bcaa d63d 6dd5 073e e7d0 e13d
00000010: 085a e73c 0002 a03c ec24 503d b9fd 453e
00000020: 9e0a e33d 5dfe d33d 6456 b5b8 aabe ab3d
00000030: fb40 db3d badb f63c e402 a63d 108f c73d
00000040: 7cf0 d33d a231 d93c eba7 b0bc 17a5 5a3c
00000050: e406 1b3e 8c27 8c3c a873 1e3c fe30 493c
00000060: e55e daba f91c 2b3c 0d5f 783d daf3 f43d
00000070: 9352 7c3c 1fc4 2a3d d3a4 8cbd 72b1 a13d
00000080: d693 fe3c 6dc7 033d 35f1 3f3d 4566 393e
00000090: 104c b93d 1ad3 e63d d556 363e aa35 a73d
000000a0: 17a2 b13d e7ef af3d b685 373d c798 c23d
000000b0: 50dd 293e 79f0 153d 8993 86bd 4bb3 433e
000000c0: d1ac d33d 3afd dc3c 2af8 073e 21e4 6abd
000000d0: 0a0f c83d 1f16 4e3e b0c8 8c3d d2d5 f03d
000000e0: 90e9 833c 280f f63d 3117 773d bfb2 9e3d
000000f0: ac31 c33c 1eee 073e bde4 91bd 25a1 133e
00000100: b3b4 9c3d 0782 203e e826 ff3d db9b 5f3d
00000110: 0674 e03d b8b7 043e 1fe4 013e 7f2a 453e
00000120: 1af4 d23d 2d91 9e3d f8ba 30bc 504a 013d
00000130: a754 b53d 83cf f2bd 1843 c23c 15f8 e03c
00000140: 8c18 8a3d eb8d 0c3e 3fc0 1b3d e3cf ef3d
00000150: d877 983d b8a1 523d 1873 1a3e 30c3 c23d
00000160: 0d0d 4d3e 8491 8c3d 6916 bc3d 149c b33d
00000170: abb1 373d d7de fb3d 078a 4abd 4644 ef3d
00000180: 5a71 49bc 8613 f83d 9702 073e 5901 e03d
00000190: 9d97 6bbc 2901 443d 1db4 ce3d 84d7 3c3c
000001a0: 88ae 02bd 165d 023d a645 2f3e 72d8 b1bb
000001b0: e0df 473a d75f be3d 0c79 a83d cef5 113e
000001c0: e831 2d3e 5ce1 993c 2967 de3d b9d9 d23d
000001d0: 1f4a 823d 202e 2f3c 1685 ae3d 46bb aabc
000001e0: 979a f73d 7824 8d3d 72ee 0a3e 7467 8b3d
000001f0: 9e27 b3bb f5a4 4a3b 2518 3c3e 540f 4a3d

layers.2.weight f4 [128, 128]
0.18142894 0.12661092 -0.14942293 0.013633443 0.24650069 0.30927002 -0.03400921 -0.1892837
-0.033939764 0.16869223 0.14679515 -0.28866407 -0.0039629717 -0.019426733 0.27832615 -0.05340622
0.12875207 -0.12644707 0.34829864 0.28182814 -0.22135858 0.10528804 -0.02797094 -0.12246388
-0.099015266 0.19455627 0.09399361 -0.20532449 -0.0062148357 0.04118081 0.26025793 0.11610112
-0.008908471 0.100835964 0.21601374 -0.09492453 -0.27138788 0.19755039 -0.04409769 0.14348964
-0.11569333 0.10251755 0.043381922 0.082745306 0.09915102 0.03896377 -0.09875494 -0.1878809
0.08182906 -0.14282517 0.15184656 -0.30392224 -0.08969618 -0.18502912 0.29850858 -0.1639426
0.09421298 -0.009922522 0.30261013 0.10196921 -0.11731011 0.03507415 0.12220895 -0.0042219595
0.19607878 -0.053538434 0.085520215 -0.02868809 -0.027552277 0.016399985 -0.1516755 -0.029972533
0.2933102 0.03069615 -0.0076779155 0.20511585 0.057672773 0.15308543 0.15839414 -0.14968237
-0.07355631 0.312744 0.1874507 0.28684765 0.040674597 0.16878183 -0.11443124 -0.044021614
0.07265431 0.0074618133 -0.049900394 -0.009820705 -0.2312399 -0.21809533 -0.04589672 0.2097468
-0.11445172 0.29679143 -0.09680956 0.14012495 -0.008089589 -0.2006672 0.03626087 -0.0022809103
0.3325086 -0.0010747088 -0.07633173 0.30960786 -0.17614383 -0.054196786 0.07539288 -0.16169529
0.20935869 0.082814805 0.101215534 -0.050571032 0.20052806 -0.22064446 0.057567265 -0.055164456
0.14843704 -0.013737439 -0.105670474 0.0537636 0.14645159 0.150868 -0.24253608 0.11642808
-0.11030361 0.29209107 -0.17034741 0.05936681 -0.16852337 -0.11456208 -0.0024651913 0.12380314
-0.17446998 -0.13324724 -0.19085045 0.51239294 -0.051611856 -0.020310853 -0.05352349 -0.02619047
0.50035226 0.19549824 -0.35845503 0.17635694 0.039211895 0.033350036 -0.338716 -0.33168066
-0.06931746 0.93236524 0.10217411 -0.056206435 0.13973513 0.14838582 -0.30345428 -0.21166731
0.07766143 0.09870343 -0.04170726 0.1591137 0.30452216 -0.13339484 -0.1123412 0.17188829
-0.0535096 0.04053571 -0.10334186 0.07648549 -0.03793327 -0.018579887 -0.06676381 -0.0031254773
-0.11056503 0.06816468 0.2906375 -0.07312827 0.14779189 -0.30595836 -0.07931028 0.23480938
0.16452143 0.14817749 -0.030722335 -0.083365835 0.018063601 -0.25236598 -0.12737682 0.3247628
-0.017325891 0.024550041 0.038823172 0.1638518 -0.10633261 -0.22010717 -0.10076926 0.093007624
0.061189737 0.052159667 0.085521825 -0.13355911 0.22083245 0.12804055 0.23928273 0.18424807
-0.4015705 -0.11346193 -0.12465916 -0.13751715 0.011206247 0.012075654 -0.026256846 -0.10519846
-0.1098699 -0.2817382 0.09533537 -0.32612437 0.4289315 0.009477685 0.16691792 0.10172179
0.03955269 -0.19098207 0.10895407 -0.037214175 0.1659935 0.20561667 -0.20958064 0.32965228
-0.25658044 0.3139812 -0.18650934 0.06823398 0.12229809 0.16601188 0.20396568 0.22544435
-0.027906489 -0.1548442 0.010151534 0.1684989 -0.044799212 0.073946536 0.054238856 0.073549315
-0.050821904 0.18979333 -0.2798546 -0.19103034 -0.16794378 0.124151275 0.22449332 0.04705974
00000000: 82c8 393e 4ba6 013e 5302 19be ce5e 5f3c
00000010: ad6a 7c3e a458 9e3e 3e4d 0bbd 96d3 41be
00000020: 6c04 0bbd a8bd 2c3e 7851 163e c7cb 93be
00000030: d1db 81bb d024 9fbc c480 8e3e 7bc0 5abd
00000040: 95d7 033e 577b 01be 3354 b23e c74b 903e
00000050: d3ab 62be 42a1 d73d 5023 e5bc 58ce fabd
00000060: 84c8 cabd c239 473e b97f c03d 9540 52be
00000070: d2a5 cbbb 36ad 283d 8740 853e 6dc6 ed3d
00000080: d6f4 11bc 1683 ce3d b532 5d3e cb67 c2bd
00000090: 5af3 8abe a64a 4a3e c89f 34bd f3ee 123e
000000a0: a0f0 ecbd b9f4 d13d 3eb1 313d 5f76 a93d
000000b0: b10f cb3d 7998 1f3d 0840 cabd da63 40be
000000c0: ff95 a73d c340 12be aa7d 1b3e b29b 9bbe
000000d0: a1b2 b7bd 4678 3dbe 1ed6 983e 92e0 27be
000000e0: bcf2 c03d 1392 22bc b7ef 9a3e 3cd5 d03d
000000f0: 4840 f0bd e9a9 0f3d b048 fa3d 5d58 8abb
00000100: e0c8 483e 1e4b 5bbd 3925 af3d 4903 ebbc
00000110: 50b5 e1bc 4359 863c d350 1bbe f588 f5bc
00000120: c12c 963e 7e76 fb3c 0697 fbbb e409 523e
00000130: 493a 6c3d 6dc2 1c3e 1332 223e 5646 19be
00000140: b1a4 96bd fb1f a03e 14f3 3f3e b2dd 923e
00000150: 689a 263d 25d5 2c3e ed5a eabd 0250 34bd
00000160: c8cb 943d 3a82 f43b 5b64 4cbd 06e7 20bc
00000170: 27ca 6cbe 6254 5fbe 33fe 3bbd ddc7 563e
00000180: aa65 eabd 0cf5 973e 1744 c6bd ea7c 0f3e
00000190: 328a 04bc b47b 4dbe 4786 143d 537b 15bb
000001a0: 913e aa3e 3edd 8cba cf53 9cbd ec84 9e3e
000001b0: 0c5f 34be 73fd 5dbd 9567 9a3d 7393 25be
000001c0: 2062 563e cf9a a93d 174a cf3d 9223 4fbd
000001d0: 3a57 4d3e 9ff0 61be a7cb 6b3d 20f4 61bd
000001e0: e1ff 173e ff12 61bc c369 d8bd 3837 5c3d
000001f0: 68f7 153e 247d 1a3e 615b 78be d871 ee3d
00000200: dce6 e1bd f68c 953e 8d6f 2ebe 9d2a 733d
00000210: 6491 2cbe 869f eabd 0c8f 21bb 808c fd3d
00000220: 42a8 32be f771 08be 4d6e 43be 2f2c 033f
00000230: f466 53bd f262 a6bc 723b 5bbd 668d d6bc
00000240: 1617 003f b130 483e 6b87 b7be ea96 343e
00000250: a79c 203d 0c9a 083d 2f6c adbe 0cd2 a9be
00000260: 50f6 8dbd 7daf 6e3f a940 d13d b838 66bd
00000270: ba16 0f3e 74f2 173e 5c5e 9bbe 51bf 58be
00000280: f50c 9f3d 0625 ca3d 3bd5 2abd b4ee 223e
00000290: 54ea 9b3e a898 08be 2513 e6bd 7c03 303e
000002a0: e22c 5bbd c608 263d e6a4 d3bd 6da4 9c3d
000002b0: eb5f 1bbd d934 98bc 77bb 88bd cfd4 4cbb
000002c0: eb6f e2bd ec99 8b3d 70ce 943e 46c4 95bd
000002d0: c256 173e 93a6 9cbe 6e6d a2bd df71 703e
000002e0: 4e78 283e d7bb 173e 68ad fbbc b5bb aabd
000002f0: 1efa 933c 1d36 81be 126f 02be 4f47 a63e
00000300: 07ef 8dbc 2b1d c93c 0c05 1f3d c4c8 273e
00000310: e9c4 d9bd c663 61be 1d60 cebd c87a be3d
00000320: 17a2 7a3d 60a5 553d 1126 af3d b8c3 08be
00000330: e721 623e 101d 033e 8806 753e 87ab 3c3e
00000340: a69a cdbe ba5e e8bd 4d4d ffbd 4cd1 0cbe
00000350: 689a 373c f7d8 453c 9918 d7bc 4a72 d7bd
00000360: 7803 e1bd fd3f 90be 313f c33d c6f9 a6be
00000370: e99c db3e 4b48 1b3c 88ec 2a3e 8453 d03d
00000380: 0002 223d ce90 43be 5023 df3d e46d 18bd
00000390: 33fa 293e 2d8d 523e 4f9c 56be 2fc8 a83e
000003a0: 835e 83be 25c2 a03e 4efc 3ebe 42be 8b3d
000003b0: 6c77 fa3d 05ff 293e 61dc 503e e2da 663e
000003c0: 269c e4bc 7a8f 1ebe 9f52 263c fa8a 2c3e
000003d0: 617f 37bd 4871 973d 9029 5e3d 06a1 963d
000003e0: a12a 50bd 2f59 423e 1a49 8fbe 759d 43be
000003f0: 74f9 2bbe 0643 fe3d 94e1 653e b7c1 403d

layers.2.bias f4 [128]
0.12546317 -0.039396573 0.123713315 0.06398015 0.011413463 0.0804142 0.07624042 0.017041376
0.02331585 -0.01835443 0.03522102 0.10896279 -0.03218132 0.03729173 0.050727885 0.09293872
0.09509083 0.018663889 0.019972526 -0.035340797 0.107850954 0.08425636 0.073505715 0.041113816
-0.019388473 0.024457278 0.055533398 0.058988594 0.06312175 0.048596013 0.028635463 0.08251802
0.062399477 0.0022718718 0.083729744 -0.004905385 0.110556304 0.08186174 -0.023031913 0.056224145
0.1270979 0.07245002 0.0688809 0.06737017 0.03573927 0.102242775 0.12709689 0.029103577
-0.02351705 0.109687194 0.070339784 0.03570186 0.056105185 0.061558846 0.09591503 0.065001644
0.067623734 0.043260496 0.022684976 0.10610065 0.08117411 0.11795004 0.12730755 0.08173431
0.0011403348 0.06811205 0.033573423 0.045055684 0.11920637 0.056929074 0.032859527 0.0736146
0.019704193 0.03473835 0.10619779 0.0608738 0.047359265 0.05789785 0.078197554 0.09422958
0.008187958 -0.011270626 0.0 0.02538828 0.046946976 0.09067752 -0.016724812 0.0653832
0.05801979 0.008241372 -0.012626937 0.01055054 0.14899692 0.028562307 0.006016847 0.085773274
0.04948955 0.11159633 0.019803012 0.060736723 0.054926533 0.01684795 0.107695594 0.07779925
0.016638072 0.098117076 0.06888513 0.025646754 0.16768497 0.0006035993 -0.008530752 0.01666124
-0.0012682984 -0.004595045 0.043127894 -0.028881155 0.06648667 0.09950202 0.08229269 -0.026287453
0.2042556 0.013663782 0.04142024 0.0061182026 0.12075282 0.03212645 0.095674016 0.044155285
00000000: 6b79 003e 4d5e 21bd 685d fd3d 0608 833d
00000010: 89ff 3a3c 33b0 a43d f023 9c3d 5b9a 8b3c
00000020: e200 bf3c 085c 96bc eb43 103d e227 df3d
00000030: 8fd0 03bd 37bf 183d 0bc8 4f3d a856 be3d
00000040: fbbe c23d 03e5 983c 6c9d a33c 83c1 10bd
00000050: f6e0 dc3d 998e ac3d 2a8a 963d f666 283d
00000060: 93d4 9ebc a15a c83c fd76 633d 069e 713d
00000070: fa45 813d 9d0c 473d eb94 ea3c 35ff a83d
00000080: 9896 7f3d afe3 143b 807a ab3d 5abd a0bb
00000090: 586b e23d 21a7 a73d 6cad bcbc 4a4b 663d
000000a0: f425 023e ad60 943d 6e11 8d3d 5ff9 893d
000000b0: 5763 123d a964 d13d b025 023e a06a ee3c
000000c0: d4a6 c0bc aea3 e03d 4e0e 903d 1d3c 123d
000000d0: 8dce 653d 2125 7c3d 196f c43d 951f 853d
000000e0: 507e 8a3d eb31 313d d8d5 b93c 4c4b d93d
000000f0: 9d3e a63d ca8f f13d e95c 023e 5164 a73d
00000100: 4977 953a 557e 8b3d 4984 093d 4f8c 383d
00000110: 7822 f43d 762e 693d b697 063d 40c3 963d
00000120: b06a a13c cd49 0e3d 3a7e d93d ce56 793d
00000130: cafb 413d 4c26 6d3d 0a26 a03d 70fb c03d
00000140: c926 063c 6fa8 38bc 0000 0000 15fb cf3c
00000150: 794b 403d 23b5 b93d 7902 89bc a1e7 853d
00000160: 29a6 6d3d d206 073c 36e1 4ebc 2cdc 2c3c
00000170: a692 183e 80fb e93c f928 c53b e6a9 af3d
00000180: 8eb5 4a3d 9e8c e43d ed39 a23c 12c7 783d
00000190: a5fa 603d b604 8a3c 828f dc3d 3755 9f3d
000001a0: 914c 883c 9bf1 c83d a613 8d3d 2419 d23c
000001b0: 9cb5 2b3e dd3a 1e3a 91c4 0bbc 277d 883c
000001c0: 083d a6ba 0892 96bb e0a6 303d 2c98 ecbc
000001d0: 2a2a 883d b7c7 cb3d 1289 a83d c958 d7bc
000001e0: 6128 513e 0ede 5f3c 45a8 293d 347b c83b
000001f0: 414d f73d 0697 033d bdf0 c33d 2cdc 343d

layers.4.weight f4 [128, 128]
-0.04488313 -0.019823201 -0.09375607 -0.06992454 -0.10251003 0.16450445 -0.29585487 0.0768554
-0.09108839 -0.0014393275 -0.2838024 -0.13885564 0.1720532 0.18781717 -0.32386833 0.053662624
0.085071124 0.24603982 0.16792814 0.099125996 0.06575581 -0.20632991 0.09124482 0.1318014
-0.0016671516 0.072792664 0.15964626 -0.03470286 0.026133493 -0.15056282 -0.2209751 -0.28283942
-0.26332104 -0.050417207 -0.267823 -0.12226777 -0.090343006 0.2421083 -0.00038904042 0.090826884
-0.09641713 0.042564854 -0.031509127 0.1721174 0.039681155 0.14196925 -0.0489644 0.045310024
-0.05268393 -0.19683349 -0.06616529 0.015787436 -0.08550229 -0.14006509 -0.09933824 -0.12011778
0.10636141 0.016572136 -0.104519345 -0.11879532 -0.010070346 0.19507883 0.20245332 0.13690363
0.27541003 -0.24039845 0.20330727 0.09123679 -0.17660911 0.110301465 0.051661283 -0.09631349
-0.1702035 -0.08151814 -0.012142669 -0.04027649 0.17051955 0.021780409 0.19640133 0.054843176
-0.075532846 -0.20225216 0.13136949 0.18213633 0.18271303 0.121477455 0.080806166 0.014612264
-0.060764972 0.12821686 -0.0912165 0.22862594 0.15591277 -0.20186965 -0.131754 -0.20943305
0.04568067 -0.036020745 0.03865375 0.0028055427 -0.18293898 -0.16696893 -0.11467021 -0.14515431
0.093986824 -0.04581525 0.007376047 0.053409707 -0.059010558 -0.039201733 -0.18845326 -0.026805481
-0.2530817 -0.26094568 0.115134686 -0.1093084 -0.2006976 -0.20284529 -0.147922 -0.16669442
-0.12679064 0.15836568 -0.07471711 -0.32996812 0.07697941 -0.025563475 -0.09207064 -0.07593636
-0.052744195 0.32451704 0.18074326 0.1779497 -0.17636079 0.13067399 -0.030033797 -0.027567016
-0.11241966 0.19275725 -0.3382426 -0.0655338 -0.14324342 0.0840863 0.0438832 0.18764132
-0.034155056 -0.14678313 0.005130041 0.17163065 -0.03480172 0.010477278 0.17966093 0.1834233
-0.031482466 -0.008199031 0.121222235 -0.04545429 0.20809613 0.15558578 -0.1945874 0.060470577
-0.1781096 -0.1015403 -0.07891115 0.031925194 0.046279818 -0.00059778674 -0.084812 0.12869127
0.059882097 0.18258265 0.13568996 0.19795386 -0.20313895 0.046396315 0.13896762 -0.15161034
0.017418578 0.064832054 0.05002528 0.13950516 -0.16422777 0.034321547 0.13766806 0.1747354
-0.20531923 -0.2737818 0.105182834 -0.2152437 0.10514143 0.09118501 0.17524603 -0.09795951
-0.21646065 0.011891163 -0.0216861 -0.13352093 0.11571793 -0.22944503 0.15284672 -0.010462483
0.028114077 -0.057383016 0.00018844621 -0.21932405 0.0988079 0.1166152 -0.118640386 0.1304172
-0.015642555 -0.16517326 0.16282226 -0.027810585 -0.053416092 -0.112313755 0.015309874 -0.039368372
-0.09087205 -0.029731914 0.15068185 0.032291573 -0.10830457 0.069096684 0.047878582 0.20502888
-0.11424007 -0.16230278 -0.036772233 0.10623669 0.006801545 -0.08911812 0.22338949 0.2342408
0.16486983 0.06105129 -0.2201254 0.016271256 -0.07657225 0.032242566 0.18457082 -0.1692107
-0.18209252 0.09713977 0.14190085 0.13062145 -0.062019803 0.11697575 0.1861553 -0.05818565
-0.16263922 0.16770047 0.08420469 0.060985964 -0.16429669 -0.10166145 -0.26031753 -0.22473262
00000000: 5fd7 37bd 4464 a2bc 2f03 c0bd 9934 8fbd
00000010: c7f0 d1bd db73 283e 4a7a 97be 5d66 9d3d
00000020: 8d8c babd d1a7 bcba 8c4e 91be 2c30 0ebe
00000030: b72e 303e 2553 403e 12d2 a5be 57cd 5b3d
00000040: c539 ae3d ddf1 7b3e 5bf5 2b3e 9202 cb3d
00000050: fbaa 863d 2648 53be 90de ba3d f2f6 063e
00000060: 5384 daba 5214 953d 4f7a 233e 9624 0ebd
00000070: e815 d63c 242d 1abe 4c47 62be 54d0 90be
00000080: 04d2 86be 4682 4ebd 1920 89be 8667 fabd
00000090: c105 b9bd 3deb 773e 1ff8 cbb9 7203 ba3d
000000a0: 5876 c5bd 7c58 2e3d b70f 01bd 8b3f 303e
000000b0: b588 223d 6360 113e e58e 48bd 0197 393d
000000c0: 1bcb 57bd b88e 49be ab81 87bd a754 813c
000000d0: d31b afbd 396d 0fbe d971 cbbd 5000 f6bd
000000e0: 03d4 d93d 4ac2 873c 3d0e d6bd f64a f3bd
000000f0: 18fe 24bc bfc2 473e ec4f 4f3e 7730 0c3e
00000100: 8b02 8d3e 032b 76be c82f 503e 5bda ba3d
00000110: 05d9 34be bce5 e13d c89a 533d 0240 c5bd
00000120: d449 2ebe fcf2 a6bd 0cf2 46bc f6f8 24bd
00000130: ad9c 2e3e d46c b23c 6e1d 493e 3da3 603d
00000140: f7b0 9abd 311b 4fbe b985 063e f281 3a3e
00000150: 2019 3b3e 2cc9 f83d b47d a53d 4768 6f3c
00000160: b1e4 78bd 484b 033e b7cf babd eb1c 6a3e
00000170: 99a7 1f3e ebb6 4ebe 85ea 06be 9e75 56be
00000180: a71b 3b3d 7d8a 13bd 6553 1e3d 32dd 373b
00000190: 5b54 3bbe e7f9 2abe 37d8 eabd 55a3 14be
000001a0: 2a7c c03d c6a8 3bbd c4b2 f13b 23c4 5a3d
000001b0: 0eb5 71bd ff91 20bd e4f9 40be 2b97 dbbc
000001c0: ed93 81be ac9a 85be bccb eb3d 15dd dfbd
000001d0: ac83 4dbe adb6 4fbe dd78 17be f1b1 2abe
000001e0: 68d5 01be 9d2a 223e 4905 99bd 95f1 a8be
000001f0: 62a7 9d3d 7e6a d1bc 888f bcbd 8684 9bbd
00000200: 4c0a 58bd 1927 a63e c314 393e 7238 363e
00000210: ec97 34be 67cf 053e 7009 f6bc 39d4 e1bc
00000220: 473c e6bd 2862 453e 222e adbe 9636 86bd
00000230: 67ae 12be 7035 ac3d dfbe 333d 0c25 403e
00000240: 2ce6 0bbd 514e 16be e719 a83b f2bf 2f3e
00000250: 408c 0ebd e4a8 2b3c 09f9 373e 51d3 3b3e
00000260: c2f3 00bd 3b55 06bc 5d43 f83d 472e 3abd
00000270: 2717 553e e151 1f3e eb41 47be ffaf 773d
00000280: 5d62 36be 5cf4 cfbd 2b9c a1bd fec3 023d
00000290: e88f 3d3d cab4 1cba eab1 adbd a5c7 033e
000002a0: ee46 753d f2f6 3a3e 4ff2 0a3e 6bb4 4a3e
000002b0: a803 50be 100a 3e3d 874d 0e3e be3f 1bbe
000002c0: 68b1 8e3c abc6 843d 4fe7 4c3d 71da 0e3e
000002d0: 532b 28be c094 0c3d dbf8 0c3e d6ed 323e
000002e0: 343f 52be 212d 8cbe 196a d73d d868 5cbe
000002f0: 6454 d73d 35bf ba3d b273 333e ff9e c8bd
00000300: dca7 5dbe 27d3 423c 0ca7 b1bc b6b9 08be
00000310: 86fd ec3d a3f3 6abe da83 1c3e d66a 2bbc
00000320: 7e4f e63c 740a 6bbd a599 4539 7c96 60be
00000330: cc5b ca3d f3d3 ee3d bbf9 f2bd 168c 053e
00000340: d124 80bc 2e23 29be e1ba 263e 06d3 e3bc
00000350: d5ca 5abd c104 e6bd 44d6 7a3c bb40 21bd
00000360: 201b babd 5890 f3bc 584c 1a3e 2b44 043d
00000370: c9ce ddbd 9082 8d3d 551c 443d 17f3 513e
00000380: b3f6 e9bd b332 26be 7b9e 16bd 9f92 d93d
00000390: 7fdf de3b 9083 b6bd 37c0 643e d2dc 6f3e
000003a0: a3d3 283e eb10 7a3d 8e68 61be 4c4b 853c
000003b0: e9d1 9cbd c810 043d 2200 3d3e 9245 2dbe
000003c0: 7676 3abe 37f1 c63d 754e 113e a1c1 053e
000003d0: 7a08 7ebd fb90 ef3d 7f9f 3e3e 1354 6ebd
000003e0: e58a 26be acb9 2b3e 8273 ac3d 6bcc 793d
000003f0: 643d 28be e133 d0bd 5748 85be 4f20 66be

layers.4.bias f4 [128]
0.0041326853 -0.0037308629 0.019372128 0.08484387 -0.0047856006 -0.0020000131 -0.020587884 0.061466977
-0.019368274 0.0674732 0.0 -0.016340818 -0.008710864 0.0386615 0.006812142 0.016302917
0.077831365 0.08885154 0.0 0.056123093 0.043982517 -0.039457455 -0.03245775 0.08288051
0.0 0.015655546 0.116989724 0.12438841 -0.009174397 -0.027971439 0.04462103 0.022028748
0.13944204 -0.05176298 -0.030182423 -0.014753224 -0.016785761 -0.004987784 0.0101451 0.13296196
-0.020723287 0.07428216 0.13131969 0.020505495 0.0 0.12486738 -0.012677759 0.063300945
-0.019434316 -0.022519572 0.028311498 -0.027731117 0.06954972 -0.044724558 0.05624277 0.07889798
0.09098211 0.111345194 -0.014570553 0.04156206 0.06697332 0.08847339 0.032683305 -0.01558296
0.070681706 -0.004731953 0.13666704 0.030264374 -0.030037694 0.0 -0.036562674 0.11608692
0.10070262 0.04845996 0.078226455 0.08217587 0.03762251 -0.01166812 0.09656163 0.0
0.108639054 -0.016331984 0.060702384 0.051535867 0.011580837 0.05812161 0.053889975 -0.015302689
0.094343044 0.0971555 0.008926331 0.062779315 -0.036453642 0.06383587 0.027590433 -0.018330954
0.010323703 -0.008461819 0.011124616 -0.035160683 0.03698472 0.08886838 0.095175505 0.01265413
-0.012500582 -0.14812368 0.024518793 0.044975657 -0.04607665 0.119457215 0.09315579 -0.050050996
-0.020994125 0.053824786 -0.013351467 -0.054444723 -0.009378239 0.009099584 0.06138176 0.13162482
-0.034818582 0.07315111 0.061738588 0.1451528 0.054979004 0.022878977 -0.03039049 -0.01925892
00000000: 7a6b 873b 7e81 74bb 4cb2 9e3c 9fc2 ad3d
00000010: 87d0 9cbb a712 03bb eca7 a8bc ccc4 7b3d
00000020: 37aa 9ebc 642f 8a3d 0000 0000 2edd 85bc
00000030: 03b8 0ebc 855b 1e3d 6438 df3b b28d 853c
00000040: 0d66 9f3d ccf7 b53d 0000 0000 54e1 653d
00000050: 0327 343d 249e 21bd 6bf2 04bd 42bd a93d
00000060: 0000 0000 0f40 803c 4f98 ef3d 5abf fe3d
00000070: 3650 16bc 5c24 e5bc 8bc4 363d a275 b43c
00000080: e5c9 0e3e 6b05 54bd 2141 f7bc 82b7 71bc
00000090: 4b82 89bc 9170 a3bb a237 263c 2e27 083e
000000a0: e2c3 a9bc 3f21 983d ab78 063e 24fb a73c
000000b0: 0000 0000 78ba ff3d 60b6 4fbc eda3 813d
000000c0: b734 9fbc f77a b8bc 84ed e73c 5e2c e3bc
000000d0: 1570 8e3d 1931 37bd d25e 663d 4495 a13d
000000e0: d454 ba3d f308 e43d 54b9 6ebc fb3c 2a3d
000000f0: 4f29 893d 8931 b53d eede 053d ac4f 7fbc
00000100: 92c1 903d 800e 9bbb 72f2 0b3e feec f73c
00000110: 9c11 f6bc 0000 0000 bec2 15bd fbbe ed3d
00000120: 2d3d ce3d f37d 463d 3135 a03d d34b a83d
00000130: 101a 1a3d a42b 3fbc 1bc2 c53d 0000 0000
00000140: 277e de3d a7ca 85bc 10a3 783d 4617 533d
00000150: 8dbd 3d3c ed10 6e3d bcbb 5c3d 21b8 7abc
00000160: ed36 c13d 76f9 c63d bf3f 123c 7192 803d
00000170: 6a50 15bd 61bc 823d 5505 e23c cc2a 96bc
00000180: c024 293c 71a3 0abc 0544 363c a604 10bd
00000190: 4a7d 173d a000 b63d 60eb c23d 4553 4f3c
000001a0: 3ecf 4cbc bcad 17be a3db c83c 6538 383d
000001b0: dfba 3cbd fca5 f43d 76c8 be3d 4602 4dbd
000001c0: dffb abbc 6177 5c3d 1dc0 5abc 6e01 5fbd
000001d0: 2fa7 19bc 6c16 153c 716b 7b3d a8c8 063e
000001e0: ee9d 0ebd 40d0 953d 9ae1 7c3d f0a2 143e
000001f0: aa31 613d b16c bb3c 7af5 f8bc e2c4 9dbc

layers.6.weight f4 [4, 128]
-0.18182537 -0.10357712 0.23974806 0.3113172 -0.26731873 0.12816665 -0.2813813 -0.18642606
-0.02685073 0.29994115 0.2751912 0.22546767 -0.24710397 -0.3259158 -0.06771416 -0.20291469
-0.29449365 0.43271127 0.04745078 -0.076805025 0.32695854 0.027100898 -0.22419448 0.31776744
-0.16755301 -0.024029525 -0.14872758 -0.3187668 0.065323696 0.20012374 -0.1342456 0.13785462
-0.15783437 0.034105577 -0.09827701 0.14557979 -0.11224508 -0.051945943 -0.043079574 0.02761784
0.18951228 0.25188237 0.053794842 0.20766142 0.0062077045 -0.3641229 -0.05650026 0.35912544
-0.16587506 -0.14405121 -0.17306842 0.1329318 0.2855688 -0.3009654 -0.0026876014 0.34393576
-0.34855577 0.37849063 -0.051896386 0.21758407 0.21854417 0.43136942 -0.15692687 0.2363939
-0.24641697 -0.18570784 -0.25415707 0.12119052 -0.019682627 -0.28790382 0.2671693 0.02653663
0.0945217 0.3948631 -0.0008720026 -0.0015643673 0.047930934 0.22706276 -0.24136402 -0.18434544
-0.30039772 0.1926037 -0.3461261 0.45456263 -0.19650288 0.070612125 0.15457696 0.13843262
-0.16584106 0.40575576 -0.20529595 0.32245144 -0.12673248 -0.16055945 -0.23892768 -0.08190541
0.28423744 -0.018055353 0.20575625 -0.16005878 -0.40934065 -0.09017133 -0.312351 -0.021600243
0.27569622 0.2801167 -0.063583046 0.0070678964 -0.046724048 -0.35898232 -0.30098656 -0.17281102
0.12964611 -0.06299057 -0.043488484 0.13100648 0.16158262 -0.2701954 0.4456299 -0.42004716
0.14671412 0.2709076 0.36421695 -0.32649177 -0.0045305714 0.14734049 -0.06437945 -0.29536298
0.09562798 -0.080944285 -0.17542286 0.08597566 -0.22054438 0.2861649 0.12409132 -0.22360228
0.25143474 -0.081158124 0.28623676 0.05047044 0.0829891 -0.21887143 0.36734015 -0.33495873
-0.15368018 0.2257814 -0.01860395 0.17761418 0.34596103 -0.2159122 -0.06712894 0.25433174
-0.19558516 0.33221236 -0.026831971 -0.25747564 0.2085252 0.15886182 0.019084306 0.26489002
-0.2421406 -0.085722335 0.077259555 0.1609835 0.24599564 -0.2530139 -0.16314211 -0.31252238
0.027193092 0.08878925 -0.3786589 0.083039835 -0.08630438 -0.28201795 0.16605575 -0.020248737
0.06820972 -0.04237072 -0.24061829 -0.061013415 0.12451412 0.2021781 0.1201161 0.303079
0.053172175 0.43784106 0.18569206 0.22433984 0.17440446 0.36321253 -0.045371354 0.15762058
-0.1680878 0.0006000785 -0.24006808 0.14646372 0.025714906 -0.23705208 -0.22116688 -0.26727986
0.3599594 -0.06325732 -0.09053175 -0.2901961 0.168874 -0.20896892 -0.25941914 0.14993131
-0.22352211 -0.17522022 -0.41418406 -0.089636795 0.3101574 0.4247597 -0.11093977 -0.25051522
-0.07325842 0.11824368 0.034318168 0.1531011 -0.1283625 -0.2345385 0.09227148 0.22584614
-0.27103722 0.15605795 0.13391021 0.34422082 -0.39829922 -0.22235289 -0.27009088 -0.035712264
0.20920901 0.24690011 -0.115978025 -0.3867134 0.05943112 -0.30575922 0.047163248 0.2870615
-0.069756895 -0.104731955 0.15342592 0.2334648 0.36904514 -0.11059 0.12293831 -0.21584174
0.06551386 0.324251 0.2743426 -0.36800534 0.4262393 0.3948571 -0.018902807 0.16684133
00000000: 6e30 3abe 3e20 d4bd 8480 753e f864 9f3e
00000010: 00de 88be 1e3e 033e 3611 90be 79e6 3ebe
00000020: 10f6 dbbc e391 993e dce5 8c3e ffe0 663e
00000030: d308 7dbe 70de a6be b9ad 8abd dec8 4fbe
00000040: dfc7 96be 558c dd3e c05b 423d f44b 9dbd
00000050: 1c67 a73e b402 de3c 3d93 65be 6ab2 a23e
00000060: 0493 2bbe 91d9 c4bc 0b4c 18be 6735 a3be
00000070: 6ec8 853d 3ded 4c3e ae77 09be c329 0d3e
00000080: 559f 21be 4ab2 0b3d 7545 c9bd de12 153e
00000090: c0e0 e5bd 45c5 54bd 3574 30bd cf3e e23c
000000a0: 820f 423e baf6 803e fb57 5c3d 32a5 543e
000000b0: 006a cb3b 516e babe d16c 67bd 4adf b73e
000000c0: 27db 29be 2982 13be d938 31be 461f 083e
000000d0: 1336 923e 2318 9abe 7822 30bb 5918 b03e
000000e0: e775 b2be 86c9 c13e 4e91 54bd 5cce 5e3e
000000f0: 0bca 5f3e 74dc dc3e 70b1 20be 3e11 723e
00000100: bb54 7cbe 322a 3ebe e020 82be bc32 f83d
00000110: 763d a1bc 2168 93be 6aca 883e 5963 d93c
00000120: 9894 c13d 7f2b ca3e 1b97 64ba 750b cdba
00000130: 3a53 443d 2483 683e 2128 77be 0dc5 3cbe
00000140: bbcd 99be e839 453e 7137 b1be 6fbc e83e
00000150: 0d38 49be 179d 903d 6c49 1e3e 48c1 0d3e
00000160: 3dd2 29be 38bf cf3e 1a39 52be 5b18 a53e
00000170: 29c6 01be b269 24be 75a9 74be 06be a7bd
00000180: 9287 913e d2e8 93bc c4b1 523e 73e6 23be
00000190: 1995 d1be bfab b8bd 78ec 9fbe fef2 b0bc
000001a0: 0e28 8d3e 756b 8f3e d437 82bd d099 e73b
000001b0: b761 3fbd 88cc b7be e91a 9abe 5ff5 30be
000001c0: f3c1 043e 3301 81bd fb20 32bd 9026 063e
000001d0: ea75 253e 0d57 8abe 9a29 e43e 6c10 d7be
000001e0: 3a3c 163e 67b4 8a3e a57a ba3e ee29 a7be
000001f0: 3075 94bb 6de0 163e 60d9 83bd d139 97be
00000200: 9ad8 c33d 1ec6 a5bd 0da2 33be 0214 b03d
00000210: 63d6 61be 3584 923e 9723 fe3d fff7 64be
00000220: 0ebc 803e 3b36 a6bd a08d 923e 18ba 4e3d
00000230: 30f6 a93d d51f 60be 0214 bc3e b67f abbe
00000240: 565e 1dbe 3d33 673e 5067 98bc 7ee0 353e
00000250: ce21 b13e 1618 5dbe e67a 89bd c537 823e
00000260: 7a47 48be bd17 aa3e b9ce dbbc d9d3 83be
00000270: a187 553e acac 223e b156 9c3c aa9f 873e
00000280: b5f3 77be 318f afbd 423a 9e3d dcd8 243e
00000290: 48e6 7b3e 0a8b 81be ba0e 27be ef02 a0be
000002a0: 0cc4 de3c 23d7 b53d 94df c1be ca10 aa3d
000002b0: 5ac0 b0bd a864 90be 850a 2a3e aee0 a5bc
000002c0: 8ab1 8b3d ec8c 2dbd a464 76be 34e9 79bd
000002d0: 4201 ff3d c707 4f3e 6eff f53d 2c2d 9b3e
000002e0: 11cb 593d b42c e03e 0f26 3e3e 58b9 653e
000002f0: 1597 323e fef6 b93e 50d7 39bd 4a67 213e
00000300: 351f 2cbe 964e 1d3a 68d4 75be 96fa 153e
00000310: 11a8 d23c c8bd 72be 9279 62be e8d8 88be
00000320: 994c b83e 0e8d 81bd b668 b9bd 9594 94be
00000330: 4eed 2c3e f3fb 55be 96d2 84be 9887 193e
00000340: fbe2 64be ee6c 33be ef0f d4be 7f93 b7bd
00000350: f3cc 9e3e 1a7a d93e 6434 e3bd 8843 80be
00000360: 8308 96bd be29 f23d 3591 0c3d 89c6 1c3e
00000370: 7671 03be dc2a 70be d4f8 bc3d 3644 673e
00000380: 64c5 8abe a8cd 1f3e c21f 093e b63d b03e
00000390: e0ed cbbe 7ab0 63be 5a49 8abe 0647 12bd
000003a0: e33a 563e 62d3 7c3e e385 edbd 4cff c5be
000003b0: 0c6e 733d 798c 9cbe 402e 413d baf9 923e
000003c0: b4dc 8ebd b57d d6bd af1b 1d3e 6611 6f3e
000003d0: 7cf3 bc3e 037d e2bd 15c7 fb3d 9e05 5dbe
000003e0: 212c 863d 3a04 a63e a276 8c3e 326b bcbe
000003f0: 0a3c da3e b62a ca3e 0fda 9abc 74d8 2a3e

layers.6.bias f4 [4]
0.037604015 -0.020552084 0.069178425 -0.04944309
00000000: ab06 1a3d d85c a8bc 6bad 8d3d d684 4abd
