stocks_google.pt (torch, 3595 bytes, 8 tensors)

layers.0.weight f4 [8, 2]
000000 17 37 98 bd 84 9e 3c 3e d4 bc 89 be f3 c6 02 bf
       -0.074323826 0.18419844 -0.26901877 -0.5108482
000010 8c c2 4d 3f 52 5d 3a bf 3c 38 56 be 4d b1 d1 3d
       0.8037498 -0.72798645 -0.20919889 0.102388956
000020 8a 6f 96 be aa a0 43 be ae ab 22 3f 0d c3 75 be
       -0.29381973 -0.19104257 0.6354321 -0.24000187
000030 52 64 2a 3d 23 0e 13 3f 8c 5f 86 3e eb 7e 5b bf
       0.04159958 0.57443446 0.2624477 -0.85740536

layers.0.bias f4 [8]
000000 0c b6 e4 3c ab 72 fd be 94 1e 47 be 80 ae 1c be
       0.027918838 -0.49501547 -0.19445258 -0.15300941
000010 76 e4 32 bd fb ec 02 bf 24 87 e2 be 1f aa f6 bb
       -0.04367491 -0.51142853 -0.4424373 -0.0075276042

layers.2.weight f4 [8, 8]
000000 8c 94 0f bf 22 49 32 bf 68 7c 5a bf b4 50 77 be
       -0.5608604 -0.6964284 -0.8534608 -0.2415188
000010 29 2a 2e 3d dc 24 42 bf 98 c7 48 bf 1f ae 87 3c
       0.042520676 -0.7583749 -0.78429556 0.01656252
000020 57 19 b5 be 4f de a5 3e 82 39 6b 3b ef bb 43 3f
       -0.35370895 0.3239617 0.0035892432 0.7645864
000030 ad 14 18 3e 3b a7 0b bf 85 93 25 bf ca 14 01 bf
       0.14851637 -0.5455205 -0.6467822 -0.50422347
000040 15 84 92 bd 23 9c 51 3e 65 58 32 3e 1d 74 1b bd
       -0.07154099 0.20469718 0.17416532 -0.03795253
000050 06 c6 7d 3e 70 bd f9 bd dc 23 3c be 1f 69 b0 be
       0.24782571 -0.121943355 -0.18373054 -0.344552
000060 ae 50 a0 3e 01 6f a7 3f 9d 37 82 3e 69 fd 12 3f
       0.31311554 1.3080751 0.25433055 0.57417923
000070 58 dc 8f be 89 21 82 3d c4 e9 60 bf aa f6 0b 3f
       -0.28097796 0.063540526 -0.878567 0.54673254
000080 cd 83 22 3f ef d4 aa 3e 4d 3b 92 3e 10 94 08 bf
       0.6348236 0.3336558 0.28560868 -0.53350925
000090 42 64 8b bf 74 28 2a be 70 e3 53 be 8a 37 d3 be
       -1.0889971 -0.16616994 -0.2069223 -0.4125331
0000a0 25 3b c0 3e 69 71 a6 3e 94 bb ce be e9 f8 96 be
       0.37545124 0.325084 -0.40377486 -0.29486778
0000b0 90 90 4c bf ea 2c 04 bf c8 95 fa be dd 26 d0 3e
       -0.79908085 -0.51631033 -0.489424 0.4065465
0000c0 b5 0c 82 bc de 22 ae 3d b9 97 d8 3e 8d 63 95 be
       -0.0158752 0.08502744 0.42303255 -0.29177514
0000d0 c1 5d 2e bf 0b 63 70 3d 6d 85 85 3e cc 5f b1 3e
       -0.6811181 0.058688205 0.26078358 0.346434
0000e0 46 94 84 3e 03 3a 00 3f 4b 5a 33 bf f9 4d cb 3e
       0.25894374 0.5008852 -0.7005965 0.39707926
0000f0 71 9e 0e 3d 85 5b 0c 3d ac 56 89 3e 09 7f e2 bf
       0.03481907 0.034266967 0.26823938 -1.7695018

layers.2.bias f4 [8]
000000 b4 e9 5f bd 31 19 42 be d1 87 e2 bd 49 92 c6 bd
       -0.054666236 -0.18954922 -0.11061061 -0.096958704
000010 9c 59 f6 bd 63 b9 3e be c2 1e 21 3d 6e 16 10 3e
       -0.120288104 -0.18625407 0.039335974 0.14071056

layers.4.weight f4 [8, 8]
000000 49 5b ee 3e 9d 19 7b 3e 7c cd 75 3e 7a 7a 93 be
       0.4655402 0.2452149 0.24004167 -0.2880438
000010 1d 81 ae 3d b3 bc 96 3d 6f 05 91 3e 6f 83 c4 3e
       0.0852072 0.0736021 0.28324458 0.38381526
000020 3d d3 20 bf ad 9c 87 bd 74 74 6d 3e 08 28 e4 bd
       -0.62822324 -0.066216804 0.23188955 -0.11140448
000030 82 53 18 bf 6f d6 5d 3f e7 c6 08 bf 00 00 44 bf
       -0.5950242 0.86655325 -0.534285 -0.765625
000040 94 75 8f 3e eb ab cc 3e 1f 76 a9 3d ff 9b 93 bd
       0.28019392 0.39974913 0.08274483 -0.07207488
000050 e4 a1 97 3e b4 25 14 3f ff 79 e3 be cb 4e d5 3d
       0.296157 0.5787003 -0.44429013 0.10415419
000060 8b 62 a1 be ba a7 d0 be a1 5e d6 be fa 37 14 bf
       -0.31520495 -0.40752965 -0.4186907 -0.57897913
000070 4d d2 2d 3f e3 1a 8a be 88 87 60 be 29 1c b4 bd
       0.6789902 -0.26973638 -0.21926701 -0.087944336
000080 a1 62 09 bf c0 c4 1f bd 2a 95 d2 bd 3b 64 49 3e
       -0.5366612 -0.039005995 -0.10282357 0.19667141
000090 2a 34 c0 3d ed 0e 2f bf 5e 83 56 bd d1 a2 31 be
       0.093849495 -0.6838215 -0.052371375 -0.17347266
0000a0 59 f4 46 3f b7 e6 30 3f bb 0e 51 3e 72 15 cd be
       0.77716595 0.6910204 0.20415775 -0.40055424
0000b0 cb 48 3f 3e 44 02 28 bf f4 62 cc 3d 38 bf 38 be
       0.18680112 -0.6562846 0.09979811 -0.18041694
0000c0 7a ef 16 3f a6 72 09 3d 8e bf 09 bd e8 d5 a8 bd
       0.5895916 0.033556603 -0.033629946 -0.082439244
0000d0 8f bf 2b 3f 7b 88 19 bf 23 28 5e 3e 2e a7 41 bf
       0.6708917 -0.5997388 0.21694998 -0.7564572
0000e0 ce 06 0e 3e 40 01 46 be 06 9b 73 be 69 57 ec 3e
       0.13869783 -0.19336414 -0.23789605 0.4616044
0000f0 96 30 86 3d 0c 4f 44 3f d9 9d 04 be e4 4f d9 be
       0.06552236 0.76683116 -0.12950839 -0.42443764

layers.4.bias f4 [8]
000000 ae a2 41 be 5b 50 a2 bd be 8c da bd 32 30 b4 bd
       -0.18909714 -0.07925483 -0.10671376 -0.08798255
000010 ca 7a c6 3d 4a cd c7 bd bd ea 42 be 7a 6f 8d 3d
       0.09691389 -0.09755953 -0.19034858 0.06906028

layers.6.weight f4 [5, 8]
000000 8e ea 8d 3e 94 46 93 3d f6 6b 73 be e1 4f ae 3e
       0.27718014 0.07191196 -0.23771653 0.34045318
000010 b3 d0 f0 be 5d 75 62 bf a9 ba 36 be 4b 63 4f 3e
       -0.47034225 -0.8846033 -0.17844643 0.20252721
000020 12 56 b3 be 91 6e 11 bf 22 4b 0f 3f 05 0f 1e 3f
       -0.35026604 -0.56809336 0.5597402 0.6174167
000030 e6 71 00 bf 70 3e 20 bf ff b0 22 3f ae 3a 55 3e
       -0.50173795 -0.6259527 0.63551325 0.20823166
000040 5d 31 38 3e 14 00 bb 3e a1 5b a8 bd 25 22 91 3e
       0.1798758 0.36523497 -0.08220602 0.28346363
000050 d8 35 b5 be 84 e6 e5 ba 38 31 eb be b8 8f 10 3e
       -0.35392642 -0.0017540012 -0.45935988 0.14117324
000060 80 65 5b 3d 94 21 0a bf 17 0a 5c 3e 3a d0 f2 bc
       0.053563595 -0.53957486 0.21488224 -0.029640306
000070 70 1b cf be 68 78 c2 be 0e 8b fc be 5c ec 54 be
       -0.4045062 -0.37982488 -0.4932484 -0.20793289
000080 39 99 11 3e b9 81 07 be bd 14 1d 3e dd 29 eb be
       0.14218606 -0.13233079 0.15339942 -0.45930377
000090 ce 44 a5 be 08 ee 5c bd f9 00 3c 3f 3a 7b 1a be
       -0.32279056 -0.05393794 0.73438984 -0.1508607

layers.6.bias f4 [5]
000000 b6 ed 05 3d c5 55 15 3d f4 20 eb 3c c0 93 f0 3c
       0.032697402 0.03645875 0.028702237 0.029367328
000010 43 f6 ec 3c
       0.02892602
